yuce/data_par/bias_4.npy (npy, 6528 bytes, 1 tensors)

array f8 [1, 1, 800]
0	0xbff80a68f44afbfb	-1.5025414984409042
1	0x3ff5ce7362e92484	1.362903009767508
2	0xbf7a5d619330ecb5	-0.006436711456497314
3	0x3fb18915e3a6935f	0.06849800880315858
4	0x3f86dc08fea562c9	0.011161871215038659
5	0x3faf1f02a7044e36	0.06078346527843019
6	0xbfbafed3861caded	-0.10545084022731262
7	0xbfb8d131f8f8f397	-0.09694206551007621
8	0x3fca06135ab27b92	0.20331041267942546
9	0xbf9342359a53beea	-0.018807256264095885
10	0x3ffeb4d4ed626222	1.9191483757805448
11	0xbf9f3196eedd9e77	-0.030462606744008327
12	0x3ff4251554e9d93f	1.2590535466129749
13	0x3ff09d36fe701d0a	1.038382524393287
14	0xbf8b222785391467	-0.013248738053457566
15	0x3fc2bba97bd6dbf1	0.14635199114647393
16	0x3fc81adf81252ba2	0.18832010084073852
17	0xbf89f758d6a333fb	-0.012678808260170973
18	0x400760cb20558ccb	2.922262432680872
19	0x3fd66726d3f8ac89	0.3500458784134897
20	0xbf84a864cf9bb8ae	-0.010086810670568571
21	0xbfda151055f4fb95	-0.4075356330321765
22	0xbfc1b6eab27d62aa	-0.13839467730828875
23	0xbf8932229f7e7a34	-0.012302656643268774
24	0x3fe6b21d1c86c7bd	0.7092423970373073
25	0xbf906f769197334e	-0.016050198207995074
26	0xbfa691b58cb3b150	-0.044080422807243225
27	0x3ff93a915bbb50d5	1.576798780753099
28	0xbf9682663442f829	-0.021981808604998463
29	0x3fec13461042d3b9	0.8773527448271273
30	0x3fa44530dde212a2	0.03959038456472298
31	0x3fab28838a0d5eba	0.053043470956877184
32	0xbfbf9577df036d3d	-0.12337445444739088
33	0xbfa2affa81ad4529	-0.036498859719936334
34	0xbfa46e7b0b3d0e21	-0.03990540039242441
35	0xbfcc5a26bdfa897f	-0.22150120044996055
36	0xbf91988e364b72ee	-0.01718351560963332
37	0xbfa35c88045c3f86	-0.03781533292033061
38	0x3fcd148b5e9425e3	0.2271894656953882
39	0xbf7ff670b2ce761a	-0.007803383091326244
40	0x3ff5e85aea221ef3	1.3692273279029308
41	0x3fc8d3f401ea11e4	0.19396829694245732
42	0xbfbf5cc02e6dcb69	-0.12250901349561406
43	0x3fd5edd2dcbad604	0.34264060550353315
44	0xbfba9e6d1c641a91	-0.10397989218845739
45	0x3f9a05f3b72b01bd	0.02541333013027879
46	0xbf9f0665fe8079cb	-0.030297845514832205
47	0x3fd45f80f843e60c	0.31832908863688725
48	0xbf90f8c63006f229	-0.01657399814733843
49	0xbf9e93545862c0bb	-0.029858892340315118
50	0xbf9cc54820028c85	-0.028096320108158785
51	0xbf66c3408af8d43b	-0.002778650341293457
52	0x3fbbdfa8e5c6285f	0.10888152703970054
53	0xc01980f5fcc34ddd	-6.375938367290897
54	0x4000d128c18c7220	2.1021285172448785
55	0x3fab1b05cc5bb857	0.0529405414543908
56	0x3fed658e09b19d18	0.9186468304950806
57	0x3fa0440411b36506	0.03176892009805425
58	0xbfda9b5d176d59b0	-0.4157326439648399
59	0xbfa3b300e1780608	-0.03847506286912156
60	0xbff39f7ea2f1c227	-1.2264391293539434
61	0x3ff8b71d8e9648a3	1.5447059221083144
62	0x3fc151c918cbc44b	0.1353083964418452
63	0xc001f40ef4870c1c	-2.244169149752919
64	0xbf897a5eaf1e2856	-0.012440433234378084
65	0xbfb9224820ae7aa2	-0.09817934797181718
66	0x3ff181885c3e3973	1.094124183964223
67	0xbfaf4fd96653f23b	-0.061156076184464024
68	0xbfb65a72555f233b	-0.08731760582226127
69	0xbf9afed554803fbf	-0.026362736971407005
70	0xbf86a995e9108fb0	-0.01106564633852955
71	0x3ff05ea1b55e82d9	1.0231034359678033
72	0xbfbd7ff1a86ef8ae	-0.11523352014680441
73	0x3fdf080c494d8341	0.48486621054148676
74	0x3fbec9d9f241de7f	0.12026750721440214
75	0xbf9482d565bb0d27	-0.02003034051336985
76	0x3fdf739352decef8	0.49142916767890155
77	0x3f8b78387bb8c1d9	0.013412896419226538
78	0xbfab5287ef548844	-0.05336403652678759
79	0x3f55fbac35f79cb8	0.0013417417284189836
80	0x3fc5156b38a388ef	0.16471615090910727
81	0x3fe01d25b1788972	0.5035580126025663
82	0x3fba4549bf74d31d	0.10261975216128545
83	0x3fc7aa7f97826287	0.18489069841304603
84	0x3fd5a983a3d3b04b	0.33847132681581077
85	0x3fd9c212fc734540	0.4024703469595643
86	0x3fb1361a061af947	0.0672317757516555
87	0x3fbb739766584607	0.10723253487255856
88	0xbfb78f44ea8ef7d8	-0.09202986456418161
89	0xbfbb7437063df467	-0.10724204924004398
90	0xbfaa6fd8fcef7de1	-0.051634579540173815
91	0xbf8e076456f96edb	-0.014662536529776051
92	0xbfab9dc5dd7a4198	-0.053938086782298444
93	0x3fde56cd2771b4f9	0.4740479359814596
94	0x3fc39e45e5771f78	0.15326760963784714
95	0xbf9140b47fcf5abb	-0.016848392773534764
96	0xbfb95dfa7bd409e0	-0.09909024737502348
97	0xbf99af826ed82846	-0.02508357812443076
98	0x3fd157fcb9f1592a	0.2709953132483799
99	0x3fd20e4c66078355	0.2821227070217465
100	0x3fd67a1bf237545d	0.3512029519454865
101	0x3fb36e3e97cb497a	0.07590094762716673
102	0x3fbe6030ad685b6b	0.1186552451475628
103	0xbf97bc6982e0845d	-0.023179672825908038
104	0xbf8410a5170319c5	-0.009797372593664097
105	0xbf9e22083712bb53	-0.029426697122001255
106	0xbf8d894462d509c0	-0.014421972528570914
107	0xbf8c60531547a768	-0.013855599486266093
108	0xbf9a3f44d35064b1	-0.025631976506791335
109	0x3fe5d1e65c51c725	0.681872539817253
110	0x3fd1813197e6dc48	0.27351035913620025
111	0x3fdecbc87be0cd9d	0.4811879358050762
112	0xbfd124e093493938	-0.2678758085575228
113	0xbf80cee24e5bfb05	-0.008207099930130033
114	0x3fe8953c16d27952	0.7682171293015847
115	0xbf9603768714f41f	-0.02149758529161627
116	0x3fd03a5091513ec9	0.25355924788616996
117	0x3fe209506b746a1e	0.5636369799352143
118	0x3fd6e3040ef87101	0.3576059480854071
119	0x3feb0e96e4c6c7fd	0.8455309360781481
120	0xbf7bf5ee4c95c542	-0.006826334816069592
121	0xbf77fcba249cb2b5	-0.005856253739506091
122	0x3fdd54944aba0f24	0.45828730866945677
123	0x3fc06538092ca7f7	0.12808895538302043
124	0x3feda43db194b1bc	0.926298949086735
125	0xbf7a84687367a395	-0.006473930369318111
126	0xbfc3fa884f17330d	-0.1560831438240701
127	0x3ff4dcc8ee172142	1.3039025593189568
128	0x3fe5183a0389b989	0.6592073506451906
129	0xbf9bb1ca16f8cf21	-0.02704540028771796
130	0x3fa88d876a58c893	0.04795478032282676
131	0xbfd1509f437fcb1b	-0.27054578391759926
132	0xbf90179bea265397	-0.015715061346401518
133	0x3fbe69065175ef04	0.11879004944597332
134	0xbf6d49ac7517ffd8	-0.0035751694019836404
135	0x3fa731c50692878a	0.045301587154667436
136	0x3ff87af23125ecee	1.5300161285256837
137	0x3fd72664fd4cc73d	0.36171841369933927
138	0x3fee3109ef05030b	0.9434861820555808
139	0x3fa70349d21584ca	0.04494696321013121
140	0x3faeead41c8156a3	0.06038534973110401
141	0x3fdc676ba7408e5b	0.44381228764743746
142	0xbf6c05f40fd368da	-0.0034208075363554137
143	0x3fe10f94d187989a	0.5331520168663417
144	0xbf8b3bb9e63c0b94	-0.013297512377453725
145	0x3fa97f0338044ab6	0.04979715403364564
146	0x3fc34f97e8f95c25	0.1508664977615989
147	0xbf8ad384968e6ffd	-0.013098750919930064
148	0x3fe19ffc429d0a5d	0.5507794667285669
149	0x3fbb9512e5c79dcf	0.10774343595368595
150	0x3fc0a03e6fa7a69d	0.12989025546931013
151	0x3fe13db6de2dc35d	0.5387834872654867
152	0x3fb9af5ea5d441f6	0.1003321795326498
153	0x3fd1d655858be078	0.278706913391495
154	0xbf79a4d63fc538df	-0.006260716352995937
155	0x3fb067fcb08747e0	0.06408671674515132
156	0x3fcba680d4f19f68	0.2160187759175145
157	0x3fcc067aab6f532c	0.21894772883265412
158	0xbfbf4ee9c2c54915	-0.12229786877768263
159	0x3fd2cd467a6a9676	0.29377901034090514
160	0x3ff791fda9145726	1.4731423000971033
161	0x3f8659104e4a5c9a	0.010912063016162588
162	0xbf8aaf22194ef601	-0.013029352567055065
163	0xbfdc6fe6145d5f28	-0.44432975758307913
164	0x3fce5a724ed86646	0.2371352086054676
165	0x3f933a340994bd5e	0.018776715359476774
166	0x3ff0484d067016ce	1.0176515819052159
167	0x3fd243de42a4c594	0.28539234646003675
168	0x3fda6f9a53378681	0.4130616963067056
169	0xbf9c0b43f23dd393	-0.027386724148033514
170	0x3fe02866ec27b931	0.5049318897634177
171	0xbf98b484c8ca6199	-0.024126124148638437
172	0x3fc1c80ad9888d74	0.1389173090147825
173	0x3fc1d2c6bf252f6c	0.1392448838545265
174	0x3fc52e748dd8cf7d	0.1654802029239554
175	0x3fe6c5e56363a4d6	0.711657232398603
176	0xbfd3ad3211def23f	-0.30744601960376267
177	0x3fb956d64135c4a5	0.09898127643625061
178	0x3ffb7c7d742516d9	1.717893079462945
179	0xbfba98448c0f116b	-0.10388592166333914
180	0xbf7dfc317699386a	-0.007320588317794566
181	0xbf90a005f260b133	-0.016235440176545168
182	0x3fba245df242ed15	0.10211741604409881
183	0x3fd960fd9f359ea2	0.39654484317586924
184	0xbfd0c5458a35e103	-0.2620405053817338
185	0x3fdadf92773a49e8	0.41989575999573825
186	0x3fce7ea16c9ef069	0.23823945811989525
187	0xbfa613086e132450	-0.043113959729062956
188	0xbfc1988dc0b0f2b4	-0.13746807011366047
189	0xbf8f940c3f2578cb	-0.015419097592424788
190	0x3febb95a9ce3d8fe	0.8663762153871912
191	0xbf90b497546b0b9c	-0.016313900496935582
192	0xbfb9386d17b39554	-0.0985172446122154
193	0x3fbdca2b8c9ed2e5	0.11636612113108986
194	0xbfb18c4b089781a1	-0.06854695281754754
195	0x3faa947e9c837469	0.051914173703814744
196	0xbf612dc4b91bb259	-0.0020970194099077352
197	0x3fac7836e35f2402	0.05560466313870195
198	0xbf94ba33b138d8e1	-0.02024155396630867
199	0x3fed3f465007197f	0.9139739573518425
200	0x3ff104cf99e1055c	1.0636745463273973
201	0x3fff506fb1d3e27e	1.9571377703088326
202	0x400090e131ab2b4e	2.0707420235025102
203	0x4001ff217a6e40d5	2.2495755734345075
204	0xbfa6521baf0b8486	-0.04359518539218592
205	0x3fb41f53e4a0ad13	0.07860302287797465
206	0x3fd491c71e20363b	0.32139757101035443
207	0x3fbdec8a34da028f	0.11689056196520141
208	0x3fbae951a672daa6	0.10512266458213534
209	0x3ff4e0d0f3c05f05	1.304886772302724
210	0xbfb310b7237adfa6	-0.07447380653581934
211	0xbf87a1caa4f13156	-0.011539061697612023
212	0x3f8c733a3da539a9	0.013891654020565651
213	0x3fa53f001822b035	0.04149627966521089
214	0x3f8a01b2d13a118c	0.01269855214128126
215	0x3f82299d69d96924	0.008868436615717963
216	0x3fd0c0766f81aec3	0.26174698724092255
217	0xbfe9737c7b4fb76d	-0.7953474434304845
218	0xbfe8d82dc92f7970	-0.7763890199092156
219	0x3fe455a9843dfbb0	0.6354568083623828
220	0x3ff57cd150a15625	1.3429730558031079
221	0x3fbaf042f0045919	0.10522859916486417
222	0xbfd5b03197492c33	-0.3388790109062853
223	0xbfb52c2dffdb03ce	-0.08270537849877188
224	0xbf9343ee9d9efe87	-0.01881382786791488
225	0x3fc3475cc38c2f04	0.15061530636045728
226	0x3fb51ac0e2bd0e99	0.0824394753990937
227	0xbf8195d672ae8042	-0.008586573958211944
228	0xbfb77e132a13dab9	-0.09176749970707022
229	0x3fdaddd5c7fd7ebf	0.4197897389440008
230	0xbf80e34a68c94511	-0.008246022532292703
231	0x3ff1738a8fd91206	1.0907083148059669
232	0x3fd181ec0e8cceac	0.27355481549168803
233	0xbf88de150d4e937a	-0.012142338245959772
234	0x3fe2e5f8272d02db	0.5905724301483944
235	0xbfa68dabb5bf5f8a	-0.04404961198423425
236	0xbfa693cb073bb7a0	-0.04409632170960198
237	0x3ff5fbfaae66b07a	1.3740183651489404
238	0x3fdeb58525517d00	0.4798291077076584
239	0x3fb4310f4e5d8e6f	0.07887359297961337
240	0x400e090f70e1c8b3	3.7544239825156978
241	0x3fd447680d16156d	0.31685830381351004
242	0xbf412a6c473a1165	-0.0005238560392660073
243	0xbf8395a93fdfa11c	-0.009562799703374973
244	0x3fbc1a23bd40e302	0.10977385874219794
245	0xbfb3992f798426bc	-0.07655617443756574
246	0x3f7b762293083954	0.0067044592438051005
247	0x3fafdcad1c61d617	0.062230500902767875
248	0x3ffb56705aac3157	1.7086032430552984
249	0xbfb3c4f3c455b209	-0.07722400229767613
250	0xbfbe2a0269bfd32e	-0.11782851297159588
251	0xbf97ed263e72c622	-0.023365590631050044
252	0x3ff0395573927dd8	1.0139975084820119
253	0x3fded6f46a804ecd	0.4818697967577748
254	0x3fac7dc58c7feda8	0.05564706173023676
255	0xbf8d94a5619884b9	-0.014443676033865637
