yuce/data_par/bias_3.npy (npy, 6528 bytes, 1 tensors)

array f8 [800, 1]
0.3829074522911907 -0.08185344230084796 0.003784233828110723 -0.03612197838019399 0.02358863702323623 -0.002096062358168867 -0.000769076703075702 0.10769101370859073
0.10763235207979648 -0.2627235395601583 0.3252212045703379 0.029310554729001403 -0.15691838926881235 0.10233236645884401 0.001458248998088152 0.037534077421057806
-0.072031274318702 0.007845555073884406 -0.10873801246445565 0.10923942499391695 -0.015390078543915922 0.24348725455641412 -0.08974922776917112 0.02122954864124778
0.28980251864223083 -0.004595563210104615 0.14204351408973548 -1.3826383113369805 0.26929088036568255 -0.09789815030480714 -0.026578021508162183 0.05448284345136552
0.241182928865181 0.037196311359835414 -0.01447667574710039 -0.023734820545939516 0.0019527915561638614 0.04576193725163723 -0.1764100193801263 0.0040252952563367694
0.5196067712951857 0.00602183334541768 -0.0053501724492683745 -0.22145261317209108 -0.036839615469239216 -0.06431144133861903 -0.006603651209047667 0.07835035100336603
0.0054729309510925545 0.005961839875684952 -0.01128595788840081 -0.13468156258880104 -0.23589797724759104 1.8701359603660714 0.07036817475498644 0.049195553369450376
7.011483626320161 -0.12313630882074615 -0.06585600407868676 0.08943988313915234 -0.5508952515164106 0.030349072820473343 -0.045079838887911686 -0.3916074558231504
-0.0019719276416512847 0.01240157964017291 -0.4244124496751757 0.0059474528031558125 -0.18583963970672007 0.06946998354893397 -0.013679055386931717 -0.16198022249410682
0.011746542855306203 -0.21869108468695836 -0.1301210189194434 0.01557073621341173 0.039981286258549305 0.2156225141898982 -0.11913479339787529 0.09655599633288242
0.017606327335482726 -0.13311639690712831 -0.0009160207283765992 0.11491530820156959 -0.08667572833035937 0.0716213470424821 0.04298038776790567 0.06925085250468409
0.029679116560554247 0.10906758134479538 0.09804131158511677 0.00037634044796954895 -0.0040038928855486286 0.14736907621265952 -0.13155207411212896 0.00426517063127199
0.005866262677900219 -0.018554586136074584 0.05335748299130375 -0.004419092297610907 -0.023070417736367956 -0.07780486097864907 -0.037725200279049284 -0.00564344413810418
0.0038878608666591706 -0.0034637581712619347 -0.00040462685531110536 0.004897086535081813 -0.02245600608815597 -0.024459989652924535 0.09916531801248343 -0.017423593741458014
-0.026387746724720863 -0.017146475628336613 -0.1553320083000265 -0.007654426863383326 0.024901067567866256 -0.1837550678367579 -0.10370870487878996 -0.2534960463655016
-0.004118590403072029 -0.006918413651717249 0.18463201263109516 0.0235463422369326 0.233120496879689 0.000597865504548448 -0.25882397749235453 -0.15667639352277465
-0.2762463855585832 -0.18979963803526717 0.00018086854424930257 -0.002510238877742262 -0.0016944374911021039 -0.04087724038094215 0.0020991607886658697 -0.01568396203104164
0.2188804172005059 0.007773550148556672 0.13635648902600972 0.04716620327774451 0.21055413371858014 0.22081910372269467 4.377067194112207e-05 0.21965013401882777
0.0007495762128334658 0.01881318025901257 -0.2016083320972779 -0.006057107895760681 -0.19245806713278485 -0.02734847940742547 0.02653176687809198 0.028246375446218597
0.015404558949446055 0.05292253315739205 -0.009586412958982823 -0.09232761269111098 0.1433327197389716 -0.1252783720148386 -0.0029292763665091266 0.12777692474111324
0.31916392515046493 -0.016938533388349636 -0.015019410386881952 -0.3062118714988577 -0.10438932309548138 0.06420468961459772 0.17251061192660488 -0.16715044861160097
-0.06518008053950679 -0.03932098954705843 -0.2699231090013005 -0.007003442503183166 -0.06990212381711958 0.02263952601426464 -0.07619777258019543 0.11147472108778422
-0.04523361664905393 0.023414844233737298 0.24774725924069196 -0.010286026451160373 0.125255539403387 -0.09392639299313911 -0.04521671280351651 -0.075583213331408
0.35328417519754773 -0.07588280667748123 0.017480422082451198 0.09170764500048971 0.05213384356141895 0.02429453795379124 0.32747179933453546 -0.009905914674635984
0.003251742042258581 0.05652513025016006 0.09910418616284936 0.06263039326763686 -0.04517280806549608 -0.23210236167659576 0.008279334277830619 0.11946631595067281
0.16790394448052023 0.218381261835386 -0.9114714059384044 0.1323628250669762 0.0062034637971438485 -0.06959034448982533 -0.035697769428944086 0.04516251882452149
0.02648958630345755 0.3835044028998689 0.09002507940813215 0.00014713835641772617 0.07412634931247238 0.17833241454452847 0.005871411922130479 -0.09605799801618708
-0.12393051267234467 1.2589394672765664 0.372836195408875 0.322851937973976 -0.32286814656095647 0.11215390150067443 -0.07852904120170337 -0.06268327550574006
-0.011035244600867987 -0.0398799590845353 0.0225364089368278 0.005539622927046253 -0.41409494227784466 -0.17597837603224672 -0.0026371340902757332 0.1743406703266699
-0.12358617613840087 0.007433109077337024 0.2134367406803116 -0.029977972809194856 0.04529359854547057 0.08157872301372292 0.19751735023693417 -0.20876291356888727
0.21227864777073047 -0.026428040053900915 0.17900993977392327 -2.746891524803984e-05 0.10302826897548241 -0.04385382033967604 0.03434631635151618 0.044896421778936976
1.5601565777446174 0.005470711756038382 -0.0051296818769452504 0.009750544327888553 0.19463272076523658 0.0423215562130957 0.1372377052496291 0.015147002243305153
00000000: e20f 3f42 8e81 d83f 3446 bfe1 58f4 b4bf
00000010: 8e64 0711 1d00 6f3f d997 9e77 947e a2bf
00000020: 25be 49a2 9e27 983f 4435 ebe8 c22b 61bf
00000030: 7d78 d7a4 7b33 49bf 8394 f365 a391 bb3f
00000040: d79d 2c38 cb8d bb3f 2b37 9364 76d0 d0bf
00000050: d619 6699 6cd0 d43f 5068 f407 9603 9e3f
00000060: 4e78 06db e615 c4bf 6f55 4337 7432 ba3f
00000070: cdcc 65f0 56e4 573f 6998 04a6 aa37 a33f
00000080: 85ef 7c3f a470 b2bf 42be b093 5411 803f
00000090: adeb 5d1f 41d6 bbbf 3a60 c86d 1df7 bb3f
000000a0: 355f 3b60 d584 8fbf 1e04 a821 972a cf3f
000000b0: cd1e 1c2e cef9 b6bf d5f3 7de4 32bd 953f
000000c0: d879 f7dc 1f8c d23f b408 1b1b ccd2 72bf
000000d0: 04ea cf5b 7b2e c23f 5539 9659 491f f6bf
000000e0: a306 12d1 0f3c d13f e4e5 e569 da0f b9bf
000000f0: 0f05 aed4 4437 9bbf da26 a2dd 2ce5 ab3f
00000100: 502b ea0b 15df ce3f f707 a519 650b a33f
00000110: 68d6 1b87 f2a5 8dbf b3bf 15d8 f04d 98bf
00000120: 45ff a7f7 99fe 5f3f 2e76 cbcf 1b6e a73f
00000130: b651 f67f 9a94 c6bf 802e b9f7 d37c 703f
00000140: 72c6 2f61 9ea0 e03f 4a0e 7d94 59aa 783f
00000150: f23c 29fb 0fea 75bf 200c 9829 8f58 ccbf
00000160: 4373 465f a4dc a2bf 83d8 4ef1 b676 b0bf
00000170: ccff a11f 6e0c 7bbf 2d88 30c3 c40e b43f
00000180: e2dc 2bb7 c86a 763f 5011 a434 716b 783f
00000190: 8018 47a0 171d 87bf c4b6 58d5 3e3d c1bf
000001a0: 4648 bca8 e731 cebf 8488 4daf 13ec fd3f
000001b0: 2e7b 4011 a603 b23f c22b a9d9 2830 a93f
000001c0: 35f0 1d5d c20b 1c40 abd3 5573 dc85 bfbf
000001d0: 3961 c367 f0db b0bf b36c 0a3d 88e5 b63f
000001e0: 151c 1914 efa0 e1bf f352 e9cc d313 9f3f
000001f0: 220e 7763 b414 a7bf 2055 e8b7 1810 d9bf
00000200: 9d1c 6497 6e27 60bf 2048 c9d7 ff65 893f
00000210: 23b0 d7d5 9229 dbbf 2180 8b34 5b5c 783f
00000220: de9e 6be3 97c9 c7bf d875 65eb c8c8 b13f
00000230: 0763 37bc c303 8cbf cc01 1b97 c4bb c4bf
00000240: 4aa0 3c4b 920e 883f da20 54c8 11fe cbbf
00000250: 94fe 6338 cea7 c0bf ad6e 7dd6 8ce3 8f3f
00000260: 796e dd59 6d78 a43f 580b 5dbf 8499 cb3f
00000270: c3a7 7529 9e7f bebf 4480 7bce e4b7 b83f
00000280: bf2c 6fa0 6407 923f 3184 a345 f509 c1bf
00000290: 0524 1189 2304 4ebf a816 89f2 166b bd3f
000002a0: 0d2f 896a 6130 b6bf 7630 3ecf c655 b23f
000002b0: 6d44 aa7f 8601 a63f 074d ba82 6cba b13f
000002c0: 68cb 01cc 3364 9e3f dc01 ee5e daeb bb3f
000002d0: e93e ea42 3c19 b93f b381 8bea f1a9 383f
000002e0: 2f7c 00d0 6266 70bf 9d36 6369 fddc c23f
000002f0: ff2a 04c8 b2d6 c0bf 1e84 f805 5b78 713f
00000300: e008 9fe5 3807 783f d1bd 9432 f9ff 92bf
00000310: e598 e308 ac51 ab3f 4f04 570e c119 72bf
00000320: 1a25 bb86 c59f 97bf 1385 5ff5 04eb b3bf
00000330: 76fc ddaa b750 a3bf 32cc 2880 941d 77bf
00000340: 2625 c268 6fd9 6f3f 8569 2302 0760 6cbf
00000350: 0933 531c 8384 3abf 87c3 38a8 f70e 743f
00000360: 3458 fd0e b5fe 96bf 48af 7a1e 0a0c 99bf
00000370: 92d4 c2f5 e562 b93f 4e83 3195 7dd7 91bf
00000380: fa8d cab4 6305 9bbf 84ef 4280 d88e 91bf
00000390: b1d6 d553 ebe1 c3bf dd03 c490 3f5a 7fbf
000003a0: 819e 5b5b aa7f 993f 39a4 6a3b 4985 c7bf
000003b0: b3d1 c357 a78c babf 3c87 337b 4739 d0bf
000003c0: e496 63b1 a7de 70bf c13c fd85 7b56 7cbf
000003d0: 87c9 0594 05a2 c73f f566 6447 881c 983f
000003e0: 8211 1077 e4d6 cd3f 8370 0c65 4297 433f
000003f0: f604 b071 9290 d0bf 4926 1ed9 f80d c4bf
00000400: 4730 e751 05ae d1bf e2b9 13c3 5a4b c8bf
00000410: 8086 00f7 f0b4 273f f755 523c 5a90 64bf
00000420: 2268 0067 fcc2 5bbf 287b 2c95 dced a4bf
00000430: bcb4 f65d 4232 613f 09e9 fadf 740f 90bf
00000440: 8935 ce04 4604 cc3f b101 977a 28d7 7f3f
00000450: 7467 7b22 2174 c13f 68da 1b29 2b26 a83f
00000460: d9f0 2d17 70f3 ca3f b516 69e6 cc43 cc3f
00000470: 94e5 09d6 ccf2 063f 0221 16df 7e1d cc3f
00000480: ac14 f5a8 e68f 483f bfeb c827 c343 933f
00000490: c0bd 7a44 4dce c9bf b152 2185 56cf 78bf
000004a0: 3ee5 1748 77a2 c8bf c2d3 9962 3d01 9cbf
000004b0: fa9d 2fbc 242b 9b3f 4d93 162b 9eec 9c3f
000004c0: 0c6a 2de7 6c8c 8f3f b2d3 438a a918 ab3f
000004d0: 5e83 2891 0aa2 83bf eeac 064d c8a2 b7bf
000004e0: 02e1 dcff b958 c23f cc94 5927 1f09 c0bf
000004f0: 6847 3e46 23ff 67bf 0c28 7988 fe5a c03f
00000500: 2b64 2587 2e6d d43f 88d9 c7bb 5558 91bf
00000510: 0fbb 5523 7fc2 8ebf d702 6fad f998 d3bf
00000520: c425 bf38 42b9 babf caff 24f2 b76f b03f
00000530: 1007 38e6 d314 c63f 0b37 2697 2f65 c5bf
00000540: 5b90 444a a4af b0bf 704c 4d78 e121 a4bf
00000550: 3b18 6693 6b46 d1bf 665e 2b48 a4af 7cbf
00000560: 2029 b707 1be5 b1bf b915 50df d02e 973f
00000570: 5f8e 427d b281 b3bf f01a 6779 9b89 bc3f
00000580: 65fe 5f50 dc28 a7bf 603b e698 0ffa 973f
00000590: 5063 0ea4 2eb6 cf3f 764c b519 d710 85bf
000005a0: 81b0 b09e 5f08 c03f c103 2362 8f0b b8bf
000005b0: 768c 721d a526 a7bf 9c8e 62e5 6b59 b3bf
000005c0: 44bd aa3a 359c d63f 3e2b 023d 0e6d b3bf
000005d0: 8d59 a844 63e6 913f f3fd 11f8 267a b73f
000005e0: c4de 3882 49b1 aa3f 268e eed7 aae0 983f
000005f0: 3f43 2047 4cf5 d43f 4627 845c 8d49 84bf
00000600: 71b9 3fb7 65a3 6a3f 3335 a7a3 dcf0 ac3f
00000610: 8a54 7756 e45e b93f 50f3 d1a2 8b08 b03f
00000620: e39c 9eea e320 a7bf 06d8 5cba 87b5 cdbf
00000630: e0c0 a56f c1f4 803f 8053 fb2f 5895 be3f
00000640: dbe4 345f e07d c53f 7933 d2cc eaf3 cb3f
00000650: a8d3 f714 c62a edbf e135 6fda 43f1 c03f
00000660: 6627 17a2 cd68 793f 1d80 b33d acd0 b1bf
00000670: cf94 7960 fa46 a2bf 806d b6aa 8a1f a73f
00000680: 8182 6e0b 1620 9b3f a9ec 140d 568b d83f
00000690: f4b2 e033 e20b b73f ecd8 8bdb 2449 233f
000006a0: 1da6 11c6 f1f9 b23f 1a8a 24b8 98d3 c63f
000006b0: 8385 fd22 9f0c 783f 80ae ffc7 4197 b8bf
000006c0: e07b e7fa e8b9 bfbf 538b f9b5 9d24 f43f
000006d0: acf4 8258 8cdc d73f c319 c32c 9ba9 d43f
000006e0: 7990 9928 dfa9 d4bf 8b6f 103b 1eb6 bc3f
000006f0: 9a5f bfaf 7a1a b4bf d1a5 4dda 020c b0bf
00000700: ac0d 5075 a599 86bf fa5a 1160 256b a4bf
00000710: b36d 69cd c813 973f 9082 dc34 b7b0 763f
00000720: 316e a112 8880 dabf db4b ee9c 7586 c6bf
00000730: a667 8895 789a 65bf c837 b58a cb50 c63f
00000740: 6a8b c0f8 57a3 bfbf 46f3 5006 2e72 7e3f
00000750: 844e 7e26 e551 cb3f 3473 43b3 8bb2 9ebf
00000760: 4320 f1f8 b830 a73f b7b4 64db 57e2 b43f
00000770: c481 d49f 3f48 c93f 9eb1 323f beb8 cabf
00000780: f43d e85c f22b cb3f 2d60 eabe f30f 9bbf
00000790: 7e74 7e36 cce9 c63f 0e58 7b7b a1cd fcbe
000007a0: 1d2d d085 0f60 ba3f 36bf 5308 0274 a6bf
000007b0: ae87 ef22 d795 a13f 26f4 7eee a9fc a63f
000007c0: afd6 60be 66f6 f83f d999 3f01 7568 763f
000007d0: d1e3 677e dc02 75bf 3245 0de8 17f8 833f
000007e0: 4a87 3599 b9e9 c83f a9bf b3c7 2bab a53f
000007f0: 9da1 e94f 0191 c13f 94b4 233a 6405 8f3f
