yuce/data_par/bias_7.npy (npy, 3328 bytes, 1 tensors)

array f8 [1, 1, 400]
00000000: af2b 2413 4e3e d1bf f59c 386e 37bb 96bf
00000010: 115c 83ef 38a4 cf3f c211 5739 4f9a eebf
00000020: 610e 8ff5 8f3d efbf 574f 7b5b eb8c e23f
00000030: ad65 1f44 cddf aebf 0f26 ef1f f3f2 eabf
00000040: 2594 1b26 ff67 e0bf 2745 54c5 9add a5bf
00000050: b65e 1f3a 9e07 e6bf 4e8b f3c4 7a66 f8bf
00000060: a659 f59a 4f71 c7bf 4277 3297 1f97 94bf
00000070: b09a 42d1 07cf c83f 6a16 b8e0 1cfb a2bf
00000080: 4343 a0e4 d2b6 f5bf 41a0 3844 8ab0 c43f
00000090: 65eb d515 ce04 c9bf d8af b465 f9ec cd3f
000000a0: 43a8 9875 4beb 05c0 c772 63a5 6181 c03f
000000b0: 7718 5929 d68f 8dbf ec1b f297 15bd cc3f
000000c0: e623 418e 9dcf febf d632 4707 5ca3 c4bf
000000d0: fe54 3f22 64d5 c8bf 75cf e33d 7ad2 81bf
000000e0: ab25 f75a dd0f ebbf 3878 f270 4087 ae3f
000000f0: 56e3 bb1d 00e4 bf3f 8f7b 53b6 8531 e5bf
00000100: 4277 52f2 1f5d d13f ac76 52e3 8fef e43f
00000110: b588 8369 3ba3 7bbf 4d35 894d 8a6b c9bf
00000120: 7505 b819 7b3d 84bf d3a0 6ef9 ab1e c4bf
00000130: 2559 2045 e917 e03f cc3d 09de 7831 96bf
00000140: 4fd8 8dc4 67af 01c0 2311 acc3 b0c0 f13f
00000150: 9556 1475 cd9f dcbf f02f 0e64 b469 ed3f
00000160: 69a6 6ed7 9d86 fc3f 9a32 96d1 b9b7 c23f
00000170: 0b5d 442c b7c7 e13f 2f68 15cb 36e7 dabf
00000180: 7a0f 404e 793c df3f ccab 8dae eee5 88bf
00000190: 9ea3 21c0 0002 dd3f ce8f 2a7a 2ea3 c83f
000001a0: f1d4 26a0 e602 80bf a00c 505a 1c22 ecbf
000001b0: 37ea a05a b424 a93f 1346 27f0 5851 c93f
000001c0: b700 43a9 0e17 d03f 3457 0237 2533 e23f
000001d0: fd4f 895f 00d4 dcbf d5c3 f6be ce3b 07c0
000001e0: 7074 bd8d d696 95bf c6d5 d177 b74d 8fbf
000001f0: 4d5e 5e4c b56b cc3f 365a e252 af59 de3f
00000200: 1e18 a537 2b9c e8bf b46b 1fbd 8fc8 ca3f
00000210: b150 de21 8f33 e93f 641c c81c 9aa7 df3f
00000220: a660 1cf7 9fd3 ca3f 4a8a 2033 23fa 8fbf
00000230: b742 c01d 10da dbbf 5933 3891 8cf6 663f
00000240: d75e d7f6 d5e8 dcbf 1d50 6351 1932 cd3f
00000250: 89c6 8670 3a29 c03f 0224 4ee1 fc1b f33f
00000260: ebc9 0112 186a e0bf d686 74cc feb9 df3f
00000270: 603b 2fc1 8920 f13f 58f6 79d8 00db d13f
00000280: 6c61 b1b7 3cc8 d03f 442a 3975 ff7e efbf
00000290: c4a2 f95e 775a cabf 0643 ac60 5c42 e0bf
000002a0: c91a 9142 425d d7bf 6c2e 448d 0d6d e43f
000002b0: d731 74cd e2d3 01c0 406e 565a e07f f2bf
000002c0: 4d4f 6db4 88b6 a4bf b787 316d 51e4 c53f
000002d0: a929 f12f 400f c73f 26ee 20ca 3d11 0fc0
000002e0: 508c 8818 7641 98bf f0c5 e2d3 2615 dd3f
000002f0: 9888 7050 f5c4 96bf 9faf 3786 152a 6cbf
00000300: ea33 736f 2c76 c03f d9cb 3bd6 2a4e 79bf
00000310: 82da d894 3c1d e8bf 5b48 1368 a1f5 d03f
00000320: e5d6 ccd1 b8a3 f63f 271c ea1c d939 89bf
00000330: 44d4 da5e db23 e03f 3955 f874 102b cb3f
00000340: 57d9 ea5c 3ef5 debf e3ad bccd 4015 d7bf
00000350: 9bff 03d7 85e3 d33f 86b5 ab43 e679 e2bf
00000360: babd c6f9 123a f13f 39cc 0d13 f0ae 82bf
00000370: abc4 10e9 d940 ed3f 0515 dda5 9570 95bf
00000380: 8369 96ba 024a b03f 42d1 074a 0cb7 89bf
00000390: ca1d 9f78 b78e a53f 1776 5aaf fdd2 dc3f
000003a0: 7236 60bf d9cb db3f 96ba 2b5a a090 b43f
000003b0: a3bc 6cfe ce3d d03f 7eed 532d 3f81 e03f
000003c0: 6bf9 d327 832b debf 41e4 e1cc 2a08 e9bf
000003d0: ea38 a729 f4ff f0bf 1545 a676 8288 f8bf
000003e0: 22a3 d6c9 e3d0 e43f b47d bd6a 3218 d23f
000003f0: bae9 1f59 399b 78bf 1874 92f4 b472 d43f
00000400: a784 dae9 d85d aabf 4a50 210a 798a e53f
00000410: d429 4206 0e4e 9abf fdb3 460c b724 e0bf
00000420: 4ae3 cea0 b1f7 83bf bb2a e48c afa5 b93f
00000430: dd19 ea00 d4ba abbf 7c20 a13a 21e2 5abf
00000440: 4e1c e40b 58ad da3f e6c4 9ecd d8c3 b6bf
00000450: d720 ed51 139c d4bf ed69 dee5 2eae e8bf
00000460: aaa4 48de 0e4c cdbf 2e80 1d03 d677 e7bf
00000470: b844 c0aa dfa3 78bf 5101 4ee4 0fc1 8a3f
00000480: 5445 9d4f 4b5c fcbf 658e 45f0 9e0b d13f
00000490: 17e0 9cde e576 d23f f7c0 af8e 507b e03f
000004a0: b218 45f7 db90 f03f 34bd 32a6 b671 b13f
000004b0: 5db0 77b6 8227 e43f 51a4 7cc0 0103 c53f
000004c0: ac37 b16b 579c ebbf 4a30 90a7 b872 cc3f
000004d0: 0a18 c727 8393 08c0 bb0c 03ae 235a f0bf
000004e0: c4a8 24b2 57c3 b8bf 22a4 951c 561e b23f
000004f0: cdef 9c20 3fe0 e9bf df83 c00f 5adf c93f
00000500: fd45 f558 75c5 ce3f 33b7 dd50 7b17 00c0
00000510: f947 9d0f 8ecf 90bf e750 6853 0df5 d3bf
00000520: b73d 52c1 4267 b9bf 7e5b 96de b59f cebf
00000530: 6930 68a7 3648 b53f bf6c 1b87 3a59 e9bf
00000540: a2ef da6b 38c9 c93f cf14 b173 e1ec 79bf
00000550: 4711 5652 d336 f33f adf0 52d5 c5b9 ea3f
00000560: 9173 47c4 cc0c e33f d389 1ce4 59a6 96bf
00000570: 32ef 2a56 c87b c03f fcd0 30bf ddbe de3f
00000580: 664f a644 ec5b 8dbf a658 dc4e 95f5 7fbf
00000590: 6f69 15d0 dfb8 dd3f a2c2 67e8 5303 08c0
000005a0: e7ef ee0d d72a d9bf fcb1 42d3 e544 cb3f
000005b0: dec2 152c 8aa9 cebf 45ed 2d7e 1048 bdbf
000005c0: b6c1 68d6 351f c9bf 30b6 eb62 c09c d13f
000005d0: 0bf3 f953 29d6 e5bf b6aa 4310 799f e4bf
000005e0: 5a22 67e8 cf88 ecbf 5015 4871 ca78 debf
000005f0: 4eb2 ef61 8010 dd3f ed47 535c abf2 ce3f
00000600: dc59 318b d42b c4bf b60b 6e54 c241 d03f
00000610: f77d 3aa8 ca6e cdbf aa0f 7ee5 2e06 0cc0
00000620: 0576 1af1 7f72 f43f 5922 bf52 d995 953f
00000630: 2b8a 7361 2a67 963f 4b62 97f7 cbfd d43f
00000640: 0bc1 2912 7475 b03f 744f 397d bb39 bfbf
00000650: 29c9 1f63 7d33 85bf 959b 480e 1269 96bf
00000660: c9d4 d972 bf80 c4bf 01be 1f6c 7fcf c93f
00000670: 28dc 3d2b 0ca6 e23f f9a7 21df dd6f ec3f
00000680: bdab 6462 d967 a7bf ea84 279e c657 e3bf
00000690: 5ffd 66a6 10c6 91bf cf46 6001 d8fe dd3f
000006a0: f87e 4e3b 4f87 e1bf d408 2709 7223 aa3f
000006b0: 1f38 6ac5 5204 91bf 09b4 19d1 d734 f7bf
000006c0: 2aa9 eebf b26d 86bf d1e4 91d3 112c bdbf
000006d0: 2351 67de b27d e4bf ecba 3ab3 1f64 d4bf
000006e0: 85d1 ecc7 78d0 e1bf af05 ec55 2c0d 94bf
000006f0: 5c65 e3d5 5fa4 f9bf a695 16c2 381c f3bf
00000700: 62b4 ddbb 1925 df3f 1d16 bd12 d48e a03f
00000710: a688 b0d5 403e 93bf 320f 65df f742 ccbf
00000720: d168 1796 7587 a0bf 7852 1a97 e887 85bf
00000730: d69d ae28 3834 d2bf d8f8 b896 1627 c13f
00000740: eeee c8b2 a5da e2bf 28fb b56c 9edd c9bf
00000750: 1418 3e6c 813d 7fbf ac6d 24bd 5be1 cf3f
00000760: 51c5 0e09 aa63 a83f 8fde 52ef 9507 e53f
00000770: a42f 1456 747d c2bf ecf2 ab34 1d54 b6bf
00000780: 9786 83ac 80bf be3f aaed 620c faf4 cebf
00000790: 69a8 4c71 9a7d b5bf 099d 8b9a 6111 87bf
000007a0: febb f52d fc3c e73f 3f01 d0c1 7997 9fbf
000007b0: cdf6 747e 4ac6 bd3f 8d8a f9fa 54e5 bb3f
000007c0: 3fc1 da21 3f97 eb3f 8284 2d22 c530 793f
000007d0: 75aa 4aa5 96fd 9cbf 3526 a9e6 f11d 91bf
000007e0: 67a6 8f1e 3666 d9bf f241 3665 150f 00c0
000007f0: ec72 11dd d753 b9bf ce0d 535f 430c b73f
-0.26942779416338686 -0.02219854936825257 0.2471991700647043 -0.9563366050647846 -0.9762649341650552 0.5797020708800841 -0.06030122238707789 -0.8421569465364785
-0.5126949066440188 -0.04270633372119397 -0.6884299407201613 -1.525019425717534 -0.18314547602012715 -0.020107740023937788 0.19381807058126332 -0.03707208865311602
-1.3571347170547632 0.16163757639992762 -0.19545913759415182 0.2337943789110557 -2.739890021058302 0.12894840789421932 -0.014434502732125971 0.22452039641595378
-1.9256873661818132 -0.16123533587815214 -0.19401218101726408 -0.00870223523495615 -0.8456866051357584 0.05962563875913002 0.12457276082922183 -0.6622952042633744
0.2713088861872742 0.6542434158215733 -0.00674746711612977 -0.1985943678468324 -0.009882890436531547 -0.15718602828315528 0.5029188490032409 -0.02167309622956086
-2.210647140101208 1.1095435756151992 -0.44725357469119703 0.9191533998687174 1.78286537316526 0.1462318681118589 0.5556293358412473 -0.4203621848333822
0.4880660308992827 -0.012157311155268767 0.45324724924881277 0.19247990574979074 -0.007818032991830455 -0.8791639102859286 0.049108158171709375 0.19779502607575292
0.25140730409112727 0.5687433313748671 -0.4504395421001844 -2.9042029303604786 -0.021083214188696464 -0.015284951538187107 0.22203699330269658 0.4742239293495091
-0.7690635763945044 0.209245650620543 0.787543836735969 0.49460461435996295 0.20958327833136997 -0.015613818166518762 -0.4351845064675603 0.0028031106428500316
-0.4517111692962152 0.22809139703770223 0.12625818724113838 1.1943329621301477 -0.5129509307574244 0.4957272526390687 1.0704438730496904 0.2789919008281223
0.26222150744208395 -0.9842526711957551 -0.20588581216295243 -0.5081006897108586 -0.3650670671526482 0.6383121260746072 -2.2284599352917485 -1.1562198189557336
-0.04045512392499848 0.17103021461212872 0.1801529153911592 -3.883418635492279 -0.023687215087317803 0.4544159955213152 -0.022235711130755037 -0.0034380360027536773
0.12860637132544578 -0.006178061801381107 -0.7535689265412915 0.26499209560018294 1.4149711795156972 -0.01231736773958232 0.5043770649559822 0.21225171767643206
-0.4837184817692068 -0.3606721886778514 0.31076189038867036 -0.5773803064054597 1.0766782528770436 -0.009122729855994037 0.9141664077816548 -0.020937288521300185
0.06362931304321333 -0.012556167611344041 0.04210446689063081 0.4503778660235595 0.43431705178304647 0.08033182336269315 0.2537724957100613 0.5157771954831529
-0.4714057816453507 -0.7822469712838328 -1.0624887110785104 -1.5333275446649328 0.6504992429882785 0.28272686408851233 -0.00600740815752448 0.3195011509322412
-0.05149724821718254 0.6731534192899826 -0.025688380367265243 -0.5044818153161256 -0.009749782295203641 0.1001844138119549 -0.054159760581615514 -0.001640827608314437
0.41683007394062066 -0.08892588634514062 -0.32202609062779913 -0.7712625970482897 -0.22888360837649674 -0.7333784161419368 -0.00601565713806556 0.013063549189383268
-1.7725327596602556 0.26633428062471004 0.288506953616435 0.5150530611845444 1.0353660258274826 0.06814137990544539 0.6298230708903351 0.16415426157735394
-0.8628346541752214 0.2222510164432399 -3.072027502787937 -1.0220066830959655 -0.09673069094847891 0.07077539632668153 -0.8086238514874765 0.20212865609303685
0.24040095180184543 -2.0114656751310576 -0.016416759207750407 -0.3118317904020515 -0.09923188419110472 -0.23924897545358798 0.0831331404407948 -0.7921421660243125
0.20145325914733997 -0.006329422637525186 1.200885125757013 0.8351773420795517 0.5953124841286003 -0.022118954227275566 0.128777544092253 0.480399548253686
-0.014335485310574558 -0.007802565798348626 0.464408829886131 -3.0016248852410436 -0.3932397495334485 0.2130400926156567 -0.23954894211376304 -0.11438086586524772
-0.19626496285628797 0.27519235286931387 -0.6823927536166549 -0.644466907278306 -0.8917007006758226 -0.4761224848046668 0.45413217128842553 0.2417806816870888
-0.15758759304544767 0.25401361699203606 -0.22994359220773194 -3.5030191353889295 1.277954046068204 0.021079440761044264 0.021877920339543316 0.3279905240902152
0.06429219668803314 -0.12197467620108943 -0.010352115237740893 -0.021885187265208456 -0.16017907245592358 0.2016448286008057 0.5827694744647305 0.8886556013142118
-0.04571418119515822 -0.6044648255302978 -0.017357120663061717 0.46867942938216073 -0.5477672727901952 0.05105167733883467 -0.01661805467534105 -1.4504011314377314
-0.010951420290287023 -0.11395369925766664 -0.640344080335613 -0.3186110735213521 -0.55669821784845 -0.019581501716862067 -1.6026304583559385 -1.1943900662966853
0.4866394362096057 0.032339694297246015 -0.018792164843156066 -0.220793708877062 -0.032283472606381765 -0.010513131247799054 -0.28443721745358397 0.1340053783369004
-0.5891903392689224 -0.2020757704558147 -0.007627015645885766 0.2490648911997203 0.04763537750785452 0.657175986699217 -0.1444535656268019 -0.08722097907952858
0.12010959827196142 -0.2418510971527728 -0.08394780412769055 -0.011263620880937813 0.7261944673208516 -0.030851271108987218 0.11630693042112768 0.10896807792009096
0.8622127209874079 0.006150026371728791 -0.0283111132036233 -0.016715793326772938 -0.3968634890030444 -2.0073650271590333 -0.09893559596225615 0.0900308711743982
