yuce/data_par/bias_6.npy (npy, 3328 bytes, 1 tensors)

array f8 [400, 1]
0	0x3fb05b8f9dff60ce	0.0638971100555665
1	0xbf670a0274bfb07c	-0.002812390133831553
2	0xbf9434e3a8421611	-0.0197330066153168
3	0xbf9b7f0ed706b393	-0.02685187518516192
4	0x3fc99f131cb2c6ae	0.20016707326208433
5	0x3f9080795f58eb39	0.016115089840450045
6	0xbfa75e863040a19b	-0.0456430372144638
7	0xbf9891ccb30fa223	-0.023993681363125085
8	0x3f967d8d39fe0782	0.02196331659752771
9	0x3fbcc0cba2670058	0.11231682505513285
10	0x3fd9c12c9d2a8f35	0.4024154219462049
11	0xbfd74edc021f3919	-0.36418819625113624
12	0x3fb45dc6d7131143	0.07955591917840814
13	0xbf7eef9c0fe6778b	-0.0075527282882869124
14	0x3fbdbf4ab53d814a	0.11620013165293588
15	0xbfb16cbcef068e65	-0.06806546054445446
16	0xbf8bcdf3c784c695	-0.013576416517568727
17	0xbfd53c6f304065bc	-0.33181361877504023
18	0x3f8e5116f7d93232	0.014803103865369403
19	0x3f84f4fe73fbfcef	0.010232913889466093
20	0xbfdd50469e778a0f	-0.4580246493843853
21	0x3fb15c6ab63885c7	0.06781641911268031
22	0xbf888538e876907f	-0.011972851366245372
23	0xbfa5c1d3f9cb16f8	-0.0424944155143247
24	0x3fc1d75f837f37e0	0.13938516541241963
25	0xbfa2b958eed26791	-0.03657033839517888
26	0xbf9701f0b205c407	-0.022468338838226767
27	0xbf750d5b8e2f4e02	-0.005139691961591366
28	0xbfe5f35cedb476ae	-0.6859573977160005
29	0xbf9a1ab80c45c295	-0.025492549656919456
30	0x3fc108f46b4201ad	0.13308577763747334
31	0x3fe8d2360ce5f95f	0.7756605388565666
32	0xbf85cbba5b04625d	-0.010642486479398966
33	0x3f7edd9efc212276	0.0075355730387590605
34	0xbf7ea385c3de7364	-0.007480165977452245
35	0xbf718c1ec90e08fc	-0.0042840197137385926
36	0xbf93d57c97aa0c7c	-0.019369074589587573
37	0x3fbcdb7989aa4ca3	0.11272391901938987
38	0xbfc01f4f0d16892f	-0.12595546855033876
39	0x3fb780a448450a55	0.09180666698834135
40	0xbfe349eb0f9a4bfe	-0.6027732186070123
41	0x3fc38c1a2fdb5a28	0.1527130826641081
42	0x3f76cb7da1c0bfba	0.0055651576513326365
43	0xbfc38a2218f2d33f	-0.15265299051466205
44	0x3fcd3ae3b864d452	0.22835966590506246
45	0xbf8226ede1022690	-0.008863314084254698
46	0x3fb46957c67b9024	0.07973240466850534
47	0xbfc14215915af03e	-0.1348292312376333
48	0x3f915a3d12ccf3af	0.016945795319077635
49	0x3fad94e530f5e02a	0.057776605822198526
50	0x3f9c5df35d54a585	0.027702143260432095
51	0x3f831e1b72218ccc	0.009334768696311356
52	0x3f81b4abbb863ab9	0.008645383510864734
53	0x3fc884e3a0dea02c	0.19155545573198773
54	0xbf9f60c339770e6f	-0.03064255750883976
55	0xbf5e6648f1b824cb	-0.0018554413171634639
56	0xbf77890d6c6829c4	-0.00574593776264937
57	0xbfd73182cff5f866	-0.3623969107501409
58	0x3fcb1a5427de7844	0.21174098917703266
59	0xbfd12f980255bbcf	-0.2685298941423157
60	0x3f9bf5f9c6a92460	0.027305510282790713
61	0xbf9820989654c267	-0.023561844039422655
62	0x3fca2dea85af9e8d	0.2045262482417808
63	0xbf8d0cdacd318519	-0.014184674632078885
64	0x3fdd0809dcaec934	0.4536156325440459
65	0x3f89303a2365e419	0.012299017148267354
66	0xbff1bc44825441bf	-1.1084637728673525
67	0x3fa2c1d32f579f41	0.03663501694592109
68	0x3fa03367eba0a44c	0.03164219619095174
69	0x3fa0e31623cab2bf	0.032982532376399025
70	0x3f803befe8f68dd3	0.007926821038217213
71	0xbf899e69b75444ca	-0.012509179980528268
72	0xbf73ae48bff258a3	-0.004804882220147774
73	0x3fa412f75fb99bb5	0.039207201419052685
74	0xbf94be1db781848b	-0.020256485295594245
75	0xbfb2ca8917853584	-0.07340294670321695
76	0xbfa978841395f603	-0.04974758853039065
77	0x3fbd5c1d7102f4d4	0.11468681344100001
78	0xbfca522e5b30359f	-0.20563296749643897
79	0x3f81d5c590c6a615	0.008708518486701991
80	0x3fc0e40ae28b49b0	0.13195930539820955
81	0x3fe3bf60581592cc	0.617111370124428
82	0x3faf435929ada8d1	0.06106070169228562
83	0xbf8651ca64d52227	-0.0108981906911519
84	0x3fcbf00b5833955c	0.21826307112420806
85	0xbfaf08422ff9806e	-0.06060988269450794
86	0x3fd4a6b3659c09cc	0.32267460749440313
87	0x3fcd9a11263262d4	0.23126425137595297
88	0x3fab5785ef9b1d28	0.05340212392689586
89	0x3faaa54c3af57bff	0.05204237193787974
90	0xbfa08bdd0cd3f423	-0.03231707364646066
91	0xbfdd087728d0dc03	-0.4536416910736422
92	0x3f80f811d57899a9	0.008285655333634194
93	0xbfc4a8a4470a01e5	-0.16139653652864108
94	0xbfbf18a6982227c2	-0.12146989072985462
95	0xbf62859f7db6de2d	-0.0022609820423118627
96	0xbf812c5ef9d2639f	-0.008385412215192121
97	0xbf7e027920654069	-0.007326577330175701
98	0xbfc155501e459be9	-0.13541604498024576
99	0xbf7f8fd33bf59e30	-0.00770552171102383
100	0x3fac32c6bffbc5f4	0.05507489293621495
101	0xbfb0ad878a3f1c5e	-0.06514784932288495
102	0x3fd9cb1b92272a83	0.40302171013596694
103	0xbf8c0025afb07ed3	-0.01367215578471762
104	0xbfb82d9c62c5357e	-0.09444596682916104
105	0x3f955b00c4f211cd	0.020854961414913654
106	0xbfb449f9d71ca999	-0.07925378324276834
107	0x3fbb71c83e54f622	0.10720492860578948
108	0xbfea81fc12fbb65c	-0.8283672686354282
109	0xbf8ce96952f53238	-0.014117071956797664
110	0x3fc07c36d5573a8b	0.128790716333658
111	0x3f44bbdde63f580e	0.0006327470296081399
112	0x3f5868dd4b9f28cd	0.0014898453796257539
113	0xbf430c60944090c7	-0.0005813094690023884
114	0xbf97189174866667	-0.022554657685395798
115	0x3fb74b862359ced2	0.09099615443283973
116	0xbf8a97b8e5febfea	-0.01298469974412338
117	0x3f86e8a12d021a11	0.011185893236199925
118	0x3f750c7fe6606892	0.00513887368108547
119	0x3f9f0a708982b0ea	0.030313261406875215
120	0x3fcf43b67ab6d3c6	0.2442539309683111
121	0xbfe4f8ae0a0f6434	-0.6553564259039661
122	0x3f82f5c596508c8c	0.009257835054148587
123	0xbfe9bee8a0d36988	-0.8045542851571534
124	0xbfa5b2ae59c684c9	-0.04237885328189745
125	0x3fa58edf6f73a0e5	0.04210565791601243
126	0xbf78dda080e312ae	-0.006070734945926288
127	0x3fcf6f61feae1356	0.24558663306756995
128	0xbf8e5ed3649e4842	-0.014829303272367981
129	0xbfbcdfeb2fc8b7d0	-0.11279172817805194
130	0x3f808142ccfaaaa9	0.00805904567763112
131	0xbfb8702f3d0e4f43	-0.09546180000898823
132	0xbf369faf034b744a	-0.000345211246253478
133	0x3f87465e84fd65f8	0.01136468737938666
134	0xbf9402b7a6bad970	-0.019541616011986063
135	0xbf76275de33b4454	-0.005408636806991291
136	0xbfac309c2784299c	-0.055058364700090595
137	0x3fd398bd5a40f375	0.3061974889167723
138	0x3fac5a829f9db69f	0.055378038391478805
139	0x3fb39c820987706f	0.07660687191622782
140	0x3fa2962bb7c7e06a	0.03630196207444743
141	0xbfd3393fb10bdbb6	-0.30036918916396915
142	0xbf9539e90ed4936d	-0.020728723077940204
143	0xbf516aaaa4e344be	-0.0010630289503306546
144	0xbf770c7479c7b319	-0.005627112372604847
145	0xbfaf2247e85195bb	-0.0608084174244072
146	0x3fab3eb1fab55bb4	0.05321270165830275
147	0xbfbd8033d0bd7480	-0.11523746343796581
148	0x3fcab1ec6369b6af	0.20855479101321836
149	0xbfc43a35ab24d0d7	-0.15802641731864384
150	0x3f8d8ac0e4699c09	0.01442480752048249
151	0x3f7c6b8788bdff09	0.0069384855559062675
152	0x3fd580dfb902ad82	0.3359908396475576
153	0x3fed33870e74d0df	0.9125399858808371
154	0x3feeba7c1680db93	0.9602642478483737
155	0x3f9f7b6596ee2025	0.030744159066245075
156	0x3fac373911ccbc08	0.05510881750375779
157	0xbf454cbb72b86a48	-0.0006500163339667265
158	0xbfcf14e177f5b3c2	-0.24282472951327178
159	0xbfc4e8e798a37605	-0.16335768654873575
160	0xbfa62c6ec0c3ad9d	-0.04330774405556357
161	0x3fc18b9aaf9319ec	0.13707288334826673
162	0xbf84e1adcae2d384	-0.01019607329758699
163	0x3f65355f98c29905	0.0025889269946503
164	0xbf6b532b4610a1ef	-0.003335556525162035
165	0xbfa718225695ac47	-0.04510600382749224
166	0xbf71224ed9b08d50	-0.0041831092922025165
167	0xbf8646c338a665b6	-0.010877156416244965
168	0x3fc2dd72d47cea77	0.14738307357204736
169	0xbf618a0fd984dafb	-0.0021410283626680494
170	0xbfb4d92019b4aedf	-0.08143807056029172
171	0xbfc6392630fe48bb	-0.1736190547204098
172	0x3ffee6ed61fe90b3	1.931378729620559
173	0xbf8490838819e869	-0.010041263190249521
174	0x3f975fcbbb244265	0.02282636956903374
175	0x3fb4eb3f9c1b12ee	0.08171460686851237
176	0xbf5f2e7b7d01787c	-0.0019031721058335995
177	0x3f68217a2c7e6f0f	0.0029456506926645097
178	0x3f9b7addef9de4be	0.02683588767056188
179	0x3fd4e5f38b29a55d	0.32653511610131664
180	0x3fe1f367a695de90	0.560962510454333
181	0xbfbd0f9f0dbd53e1	-0.11351961217344765
182	0xbf59956b9f21b2f7	-0.0015615035049691397
183	0xbf88317708378b89	-0.011813096941244232
184	0x3fd40566f1fbe4fb	0.31282971984144553
185	0x3fa588a65f88222a	0.04205818096312826
186	0x3f910a78f6c4b460	0.016641511975809542
187	0xbfc7f2cac6bf69b3	-0.18709692673185216
188	0xbfe0594cf99b16f9	-0.510900962363592
189	0x3fb72ebb73d1c58e	0.09055682733175827
190	0xbf969703d4225d1e	-0.02206045133843048
191	0xbfce0a87c79614a1	-0.23469636197493052
192	0x3f98482f0874a42e	0.023712859049883565
193	0x3f9c2e520234beb6	0.027520448097844784
194	0x3fe1be743480364d	0.5544987702757652
195	0x3fcd583094efac99	0.2292538382747338
196	0x3fe8b8540a190174	0.7725010106296808
197	0xbfb3659bdca8782f	-0.07576917779121638
198	0xbfadd2999f6ea694	-0.0582473761672421
199	0x3f928ad778ebbd58	0.01810776401083322
200	0x3f7d2b64404820f5	0.007121459585057934
201	0x3f4ebb34ba86825f	0.000937844034570711
202	0xbf9333fb97159cd5	-0.01875298604627747
203	0x3f720f90ff9a4446	0.004409376526056502
204	0x3fb839b839f98e2d	0.09463073172951715
205	0x3f8bb9b86c5fec89	0.013537827308019128
206	0x3f8a541abb28bb87	0.012855728947298818
207	0xbfb7f5afd107c116	-0.09359263280180516
208	0x3f6bd9607e430dd3	0.003399551833440853
209	0xbfa2516810cab558	-0.035777332353385816
210	0xbf63672ad68d77b7	-0.002368529956966871
211	0xbf8ea56c7b5a3336	-0.014963958277144234
212	0xbfb7c09de5210af4	-0.09278284877749937
213	0x3f9376fa855ec83b	0.01900855483081208
214	0xbf6bdcb7f09b07d7	-0.0034011452270030595
215	0xbfdcd4bbe5ddad64	-0.4504842514786189
216	0x3f6055b824c6ecd5	0.0019939991527429903
217	0xbf84f9e1ac6d882d	-0.010242236208515798
218	0xbfc2143f4525b289	-0.1412428939469417
219	0xbfce2241e20950e6	-0.23542045151646745
220	0xbf8a28fe8c8e9fc8	-0.01277350298353487
221	0x3f71b7de79a5754c	0.004325741809535554
222	0x3fe673aa1984ef91	0.7016191957877586
223	0xbfbd773aac6a92b8	-0.11510054311163287
224	0x3f864fd7a6d9bdc2	0.010894474772810695
225	0x3f9854ba87c7035d	0.023760714089579128
226	0x3f81a3afcc7f8e14	0.008612988880435636
227	0x3f74473d85757b11	0.0049507525612557815
228	0xbf883d52e89c2a05	-0.011835715984052983
229	0x3f82d2134b1d06a1	0.009189749460009113
230	0xbfa34ed8e0fc4e44	-0.03771093126684069
231	0xbfaf0934b0619972	-0.06061710980502512
232	0xbf82f22e7c484a73	-0.009250987212941575
233	0xbf924b9e70a909d3	-0.017866588236083402
234	0xbf6957041ead5ba5	-0.0030932503190501275
235	0xbfc1c77e86608196	-0.13890058099151464
236	0xbf1ef3631754be68	-0.00011806766800214754
237	0x3f6ad73b4e55a564	0.0032764585800363778
238	0x3f8aeea7419a9971	0.013150507630893956
239	0xbfc6ba34f781f70c	-0.1775575836690496
240	0xbf7c4e75a1a12dad	-0.006910762307664892
241	0xbf840e427d21b701	-0.009792823260990515
242	0x3f893ba7e74ccdaa	0.012320815798011992
243	0xbf7ebf764ca916ae	-0.007506811244245943
244	0x3f9244010224728e	0.017837539439926213
245	0x3f86700ebc3ddda0	0.010955920333556801
246	0xbf76c3af098b7199	-0.005557712306395146
247	0x3f7b4a803f46e89f	0.006662846532373617
248	0x3f8a2d9160265270	0.01278222632098755
249	0xbf83b8111316b6da	-0.00962842311386274
250	0xbf773b78428e2e43	-0.005671949163012227
251	0x3f7202ba68651472	0.004397133021773235
252	0x3faa3adb94d62a7a	0.05123029891827442
253	0x3fb21332e4a481c3	0.07060545045943116
254	0x3fb132b9e76e8cb5	0.06718027019683144
255	0x3f908838a3efee9a	0.016144642835554814
