yuce/data_par/bias_0.npy (npy, 1728 bytes, 1 tensors)

array f8 [200, 1]
00000000: cfd8 c9ef 322f 61bf baf1 70eb f5fe 78bf
00000010: 9d45 02da d8ac 7f3f 4cca 0d6f ac6c 71bf
00000020: 4f22 e45a 5349 a53f 1dc3 a1f7 a5cb e93f
00000030: 2108 fb51 2eec bbbf b1f1 e885 8664 b9bf
00000040: 29c4 3985 deac e33f 2296 aace c6f7 c23f
00000050: f68a 7392 0831 d8bf 8f16 9976 b7bf 6abf
00000060: fe1f e53d eef0 bcbf f67d 4cf0 6538 f7bf
00000070: 44da 89bb 4714 a8bf c7f7 b08c 5ea3 79bf
00000080: f6f4 8910 bef6 d5bf 012f 54b0 9ea8 cebf
00000090: f55e 26cd 68ac 9a3f 27b4 c00d bd64 e03f
000000a0: 102b 8c5e 9ca8 0040 8166 287b 6aaa b9bf
000000b0: a584 2508 d718 84bf 75c1 a711 d401 c1bf
000000c0: 1051 2576 5d27 c5bf c457 0a31 560c 473f
000000d0: 2746 a3be 99d5 2ac0 0009 dc8b b75f b9bf
000000e0: 894a d8c6 fe72 d8bf 6ae9 1334 8cbd 843f
000000f0: b8ed b26a ccb7 b13f f635 ae2f 3844 c93f
00000100: 2a73 f117 93cc 85bf acdc 9fdd 6376 b6bf
00000110: 0213 4549 6d26 75bf 84b0 dfcd 512c a0bf
00000120: 4dea ed5a b0ae a7bf d796 f328 2596 873f
00000130: ecae 533c 9ef3 a43f 2e1c d5bb 3db5 21c0
00000140: 1369 891e fd75 d43f 8a02 c671 c77a b4bf
00000150: 8d04 6db1 c7b3 c63f 5143 3d96 1164 d03f
00000160: 5cc3 1639 462a c13f fb31 1904 7601 d73f
00000170: 5084 6044 ba37 b33f 8e04 7d36 6e62 c33f
00000180: 3f41 4c58 833e a7bf eaba 48e9 e637 cc3f
00000190: 9eaa 093d 94c4 873f 2593 10a7 0e97 fcbf
000001a0: 3e78 2e08 5fad 953f d0bd 1613 ad5f b23f
000001b0: 47f5 e027 781b 45bf 3bc4 c3f2 d6b9 bc3f
000001c0: 9470 ed88 c2ac dd3f 3576 cb57 7880 e63f
000001d0: 1a80 c27b 644e db3f dd11 de1d ceff c3bf
000001e0: 7694 efbf 189a 7cbf daa0 1482 7e0c b5bf
000001f0: 6f3b cfe9 f2e0 5b3f 6307 3bb9 f2c2 74bf
00000200: 5dcf 6a82 b6de d03f 6477 ff2b 52ce c53f
00000210: 1387 2225 f827 7f3f af45 4222 09d9 6ebf
00000220: cea7 0e4b 96cf b0bf 8fd2 6d97 34f1 c63f
00000230: 6aeb 4deb 7f1a 1bc0 a466 b68d 5b8b ef3f
00000240: a125 83a4 a3fc c33f cfe2 5741 b738 7fbf
00000250: 9fff 992b cf78 6cbf 35ac 5d50 70cd 963f
00000260: 157a dae1 8b7c ae3f a612 e1a0 de66 e13f
00000270: 39e2 dbdb 484a 9f3f 4400 bb6f 845d c5bf
00000280: 56e9 8f9a c351 c6bf 38e2 6457 988a bb3f
00000290: d129 7213 7785 c13f 1f96 50ee d218 903f
000002a0: f6f5 7773 0167 633f ca14 6634 da2d dbbf
000002b0: 9c95 786a cc54 a0bf 3afb e9c3 c3b4 ccbf
000002c0: 2f8f 63eb 4616 ca3f 043c c36e a2db b13f
000002d0: 6fa5 0dd1 d02e 1fc0 8d25 612f 6025 76bf
000002e0: 2bca 7777 d198 d13f 079b 3068 c174 e13f
000002f0: c153 7a71 baa8 e7bf 61e9 e79a b43a d2bf
00000300: 342c dacf 5803 b13f 3774 1144 a971 b13f
00000310: 4bc0 fe0e 1afb dd3f da7c 3f71 fc2c f23f
00000320: 1ad7 0d21 c6a2 afbf 31d9 d885 b8a5 98bf
00000330: 04a6 b519 bf49 d4bf 7dab a5b6 1723 b1bf
00000340: 836d d0a4 a40c d6bf fbba 0d6b 1fe0 6fbf
00000350: b0bf 537f bfbd 9b3f 1edf 5183 2c8d 6f3f
00000360: a7f8 0824 1797 b3bf d97f d0d9 63f3 27c0
00000370: ab46 6c71 a18d c5bf b269 d7be cbc7 d93f
00000380: 14b6 7e4f c059 64bf a5ea 5e49 85ad 91bf
00000390: c17c 720f 2588 78bf 228b 6c85 8678 d7bf
000003a0: 3990 d71f ed81 99bf 4ca5 56cd 0fbf f13f
000003b0: b881 5f60 e676 b2bf fed9 1efd c3ff b83f
000003c0: 8404 d07c 3d4b 8f3f 71ba d261 77a4 bb3f
000003d0: 62fb 6879 9698 cd3f 0637 8270 06bf c7bf
000003e0: 8549 8131 34c6 723f 88e0 dabc b919 a83f
000003f0: 8396 bbc2 eb89 b83f 679d cb89 ef2b 40bf
00000400: 4f1f a14c d09a bebf 1971 2a38 8a76 c33f
00000410: 3ae0 42f3 cc2f 87bf 0baf a2d1 bd0e cabf
00000420: 44ef 5646 3f0c bd3f 93e3 1ba8 02f3 843f
00000430: 58e2 3b77 fd86 763f feb0 171d 1ff0 be3f
00000440: e4fc 8764 ef97 d23f 926d 497b 2ade d03f
00000450: 4e9b cbf7 39bb 663f 2f03 2745 f6b5 ccbf
00000460: 9aec 4d4b 3962 75bf 9429 2527 5f0d 89bf
00000470: 350c 80ab 56d8 c1bf f106 a7fe 30bd d13f
00000480: 8b16 32b7 8a34 f83f c5a8 ceaf ae2c c9bf
00000490: 25ea bf9c 16c3 fcbf 3378 8d45 451e a1bf
000004a0: a323 9dfb 5294 9abf 4c10 79ad b7bb c03f
000004b0: 0f4b 9f0c bbbb 71bf 4944 120c f0ce 953f
000004c0: c634 b8b7 8a6f d2bf bec3 3e18 7476 743f
000004d0: d22f e9e9 63bc c5bf 6f49 97e5 70ef b03f
000004e0: 53b6 c251 69c6 d23f 66ae cd66 2ffe 803f
000004f0: 2e50 35c4 9852 d1bf e3f0 a133 5b49 6a3f
00000500: 45ec f61f 67f3 59bf d2d9 d2a5 e853 c4bf
00000510: 8320 d282 96f3 d13f 25b5 ad29 580d 843f
00000520: cca0 7725 130e a03f 9aa8 d1a8 dd30 b23f
00000530: 7ada f4a9 3c68 e73f be8c e588 f126 d03f
00000540: c0c4 00f4 46fb c5bf da54 f866 60d4 913f
00000550: b955 b8c8 bc4c c83f 8084 8b15 f262 d13f
00000560: 5d98 d7e7 e78e f3bf e068 994a ef76 29c0
00000570: eebf 544b c18f a1bf 914e 8551 bb7a c13f
00000580: 2ec7 dacb ca97 a53f bace 0482 0cdb b8bf
00000590: cbac e93f 3752 a1bf 71dd e3e1 79f2 bebf
000005a0: e4c7 be66 6126 0dc0 e3a2 28b2 9948 b83f
000005b0: c82b b181 b5c7 d3bf 53fa 2640 68c2 8ebf
000005c0: 1728 7643 394b aabf 480b 25ce c57e a13f
000005d0: 0426 bec7 ea53 923f 9f2b b75b 021d b03f
000005e0: 81d5 8c46 7a74 e93f 7913 d158 df7e 5e3f
000005f0: 7d72 d15a d171 c23f 667f 2cbf 14e8 9d3f
00000600: c4dd d87e 43f5 e9bf cabe 333d 347e 6abf
00000610: 5da7 7d2f 9a78 c1bf 372c 6a34 fb12 c1bf
00000620: 13b4 1bc0 9ad4 e7bf 5047 338a ba6a bc3f
00000630: 1f67 8570 2d7a e0bf 87fd aa32 50ed cf3f
-0.0020977015358837124 -0.006102524398610526 0.007733199192573007 -0.004254029817149684 0.04157505497466173 0.80610941281893 -0.10907258512000385 -0.09919014710698694
0.6148521997512307 0.1481865414727262 -0.377992766398321 -0.0032652457491931307 -0.11305130969151375 -1.4512690912887343 -0.04702972568786781 -0.0062593167631898655
-0.3431849633705747 -0.23952087030226468 0.026048314591746686 0.5122971790893914 2.0823295008207268 -0.10025659090788432 -0.009813003479111801 -0.13286829816889748
-0.16526382702671372 0.0007033749444242889 -13.417188603812134 -0.09911677517451167 -0.3820187513203242 0.010127158488548022 0.06921079258875451 0.19739439323568292
-0.01064410130327927 -0.08774398957017365 -0.005163599871882198 -0.03158813131435159 -0.04625464544274802 0.011516847908250067 0.04092115866100507 -8.853986615909971
0.3197014616213362 -0.07999846007988701 0.17736145175334564 0.25610770866210425 0.1341026095156178 0.359464172365534 0.07506908578263105 0.15144136105121614
-0.04539881184439531 0.22045599356484696 0.011605413544392203 -1.7868792081801044 0.021169171213493813 0.0717724010089491 -0.0006441437433363583 0.11221068789360882
0.46366942760301666 0.7031823839894914 0.42665969930567516 -0.15624405344364237 -0.006982895544728076 -0.08222189594073673 0.0017015812111258152 -0.005068729533094759
0.26359331832940375 0.17035891674361914 0.0076064770857173945 -0.0037656000514025493 -0.06566752750828117 0.17923600572580198 -6.775878597861132 0.985761429579004
0.15614743740870288 -0.0076224478157135974 -0.0034755750937733444 0.02226806154741841 0.059543963737486084 0.5438073293849655 0.030556810778735708 -0.1669164224204015
-0.17437024161319908 0.10758354314465002 0.13688553285130792 0.015719695849972234 0.0023684528675846873 -0.4246736060816373 -0.031896961209251645 -0.22426650110352303
0.2038048409805184 0.0697576065460766 -7.795718447168254 -0.005406738017037849 0.27495228449621106 0.5455023798902808 -0.7393467155803749 -0.2848330986741044
0.06645731997029786 0.0681405821973876 0.46845103706710195 1.1359829353094058 -0.0617887416218947 -0.024069674653412313 -0.31700112829875615 -0.06694172104987035
-0.34452167601713074 -0.003891049731854832 0.027091018816406354 0.0038514966386705837 -0.07652420644532985 -11.975371176435077 -0.16838472402792112 0.40281957280026426
-0.002484202963350732 -0.017263491252132685 -0.005989212767558872 -0.36673129110038094 -0.02490969187591949 1.109145929435118 -0.07212676861627798 0.09765267305088085
0.015280228015401194 0.10797830713520697 0.23121910980440946 -0.18551712506853607 0.004583553200136929 0.04707127027853725 0.09585450653283982 -0.000493518793146669
-0.11954976912340708 0.15205505125494126 -0.011321641134017669 -0.20357487426860418 0.11346812693858249 0.010229130511548756 0.005499830341925881 0.12085146389262388
0.29052338426113367 0.2635599330876285 0.0027748233973058705 -0.22430303932744652 -0.005220626645377946 -0.012232535726657535 -0.13941462873489888 0.27717232578662193
1.5128276020126659 -0.1966760977205181 -1.7976289866479729 -0.03343407129317235 -0.025956436736382604 0.130728683188979 -0.004329424535131534 0.02129721711805058
-0.2880579752098352 0.00499577855582428 -0.16981171533040978 0.06615357976196433 0.2933600710337931 0.008297319721996387 -0.27066630516970036 0.0032088071139338855
-0.001583910663483194 -0.15881069275719867 0.2804924275919875 0.009791077396324408 0.03135738212933034 0.07105813380772688 0.7314742392980655 0.25237692231003084
-0.17173087038239565 0.017411714825432557 0.18984184075149615 0.27166416267397864 -1.2223891311964714 -12.732294398524061 -0.034299889035878425 0.1365579746294441
0.04217370737514013 -0.0970924203327809 -0.03383038191972217 -0.12088739170927966 -3.6437404658290564 0.09485779380396368 -0.3090642706417239 -0.01501923986222412
-0.05135516117577781 0.034170323766849864 0.01789824337132552 0.06294264544628313 0.7954684617931634 0.0018613034365142207 0.14409844336013924 0.029205631416629706
-0.8111894109232982 -0.0032340069097854572 -0.1364929897202342 -0.13339176234544123 -0.7447026970018008 0.11100355028181963 -0.5149142453840091 0.24942972635288305
