yuce/data_par/bias_1.npy (npy, 1728 bytes, 1 tensors)

array f8 [1, 1, 200]
0	0xbf8d1c733e30d508	-0.014214420638476458
1	0xbf7ae54eab661f13	-0.006566340735282744
2	0x3fe0138d2bc32029	0.5023866514902738
3	0xbf77d8ebeb0889c8	-0.005822106890749308
4	0x3fa72cb36368965b	0.04526291454776007
5	0x400000dcfec03ffc	2.0004215147419
6	0xbfb1ebbc1bab82a4	-0.07000327754532037
7	0xbface46ce1fa16df	-0.05643024691111775
8	0xbfd391f12e4e66c1	-0.3057825996598745
9	0xbfc75bd1b1ae7a90	-0.18248959709031398
10	0xbf8c51b0f5be89b6	-0.013827688693542988
11	0xbf6bf95bc96b5ce2	-0.0034148018561200736
12	0x3fe6b2223f37cafb	0.70924484584097
13	0x40156b42887ce77e	5.354745991347839
14	0x3f4b1cd785feb024	0.0008274128303944511
15	0xbf8983e35cc59f7e	-0.012458587902713477
16	0x3ff38f3f0e725ca7	1.2224722446751828
17	0xbfc312694d83570f	-0.14899936947647816
18	0xbf87e24449ccbe89	-0.011662038328352569
19	0x3f645f7302418c60	0.0024869200006363695
20	0xbfe94e690e6ee044	-0.7908215791603728
21	0x3fc2129564f1f960	0.14119212559667016
22	0xbf901bd461998727	-0.01573116155339629
23	0x3fbc6c35268c54d2	0.11102611724011816
24	0x3fe47f1406480ce9	0.6405124781307708
25	0xbf758d542974978e	-0.005261734731254365
26	0x4054ab936509f28d	82.68087125750954
27	0x3fd1a311e510f379	0.27557799691913193
28	0xbfb6a77532f76947	-0.08849270338342761
29	0xbf8d1028fe61a240	-0.01419097925482149
30	0x3fe1599d03fce3e2	0.5421891286742915
31	0x3fe53a30341a8926	0.6633530633592144
32	0x3f776a2d3526b4fd	0.005716492264054238
33	0xbfa7be13ae7476f9	-0.046372046514290895
34	0x3f96b84b687b8a69	0.02218740296565117
35	0xbf948a8033a4d2da	-0.020059588577356326
36	0x3fbf973706650c6a	0.12340110689278708
37	0xbf7b54512b0004c1	-0.006672207891825711
38	0x3fe7b43084a1b07e	0.7407457914791988
39	0xbfe230df9f4503cd	-0.5684660063490071
40	0x3fd4d33fcbfea10f	0.32539362832405144
41	0x3fb4f552d6380abb	0.08186834077791165
42	0x3fe594bd0b5e4f77	0.6744065496481956
43	0x3fb3dee0e63dbc73	0.07761960621950141
44	0x3fd6a588e0f9749d	0.3538534352317784
45	0x3f6ebce23fb756b8	0.003752176182142044
46	0x3fdf8f41d3623554	0.4931187214177346
47	0x3feaa017b566f070	0.832042555142392
48	0x3f86b63d16c6e224	0.011089780099482978
49	0xbf848e249a5d40e7	-0.010036741219352453
50	0xbf8ad57b20d79b86	-0.013102495136036795
51	0xbfd2935c7446523d	-0.2902442107672732
52	0xbf9440d8ca9789b8	-0.01977862106822112
53	0x3fd45ed1c91293b5	0.3182873214339524
54	0x3fc8c7a992b081f3	0.1935932127244225
55	0x3fdc481997b59caa	0.4419006330048868
56	0xbfca75a266df5f15	-0.20671491644929377
57	0x4004695a1743f930	2.551441365968593
58	0x3fc03c21149dc055	0.12683499819422886
59	0xbfb9599fc6541cf1	-0.0990238055420496
60	0xbf7cbc081b17339a	-0.00701525846802733
61	0x3fd35b15bc75455f	0.3024343815241845
62	0xbf8fe8519a80d397	-0.015579831626476621
63	0x3fd2843f2bc22684	0.28932170174866934
64	0x3fe063a1a91f108c	0.5121620467330259
65	0x3fd0068fd91918ec	0.25040050698261385
66	0x3faa8793ad1f44b2	0.05181561935717961
67	0xbf880c3637a803c7	-0.011742042134757725
68	0xbf9986cffa0093d6	-0.02492833102600741
69	0x3fa6c570a7eade69	0.04447509813092838
70	0x400c60394f96fadb	3.546984311862031
71	0x3ffb09c901f8ce0d	1.6898889615084756
72	0x3fc40a7b3c7a8a26	0.1565698666864403
73	0xbf8aeb4666a55bc7	-0.013144063956742514
74	0xbf92c4643d9ab68a	-0.018327299366026874
75	0x3fd0f8fe59e26548	0.26519736078042344
76	0x3fd759a3101a8037	0.36484600613221424
77	0xbfce6d1d29bf38be	-0.2377048925249649
78	0x3fd36a99cbc47ff5	0.3033813943784474
79	0xbfa9f3399ea50232	-0.05068378507212791
80	0xbfa4a31313a13ff5	-0.040306659837938165
81	0x3fe47c81fa18aaf4	0.6401986965841773
82	0x3fc3e18d1252ee14	0.1553207721207036
83	0x3fc1165d8ab7e6e4	0.1334950377784515
84	0xbf800dbfe9cf1648	-0.007838725397856142
85	0xbf86adad97052804	-0.011073452159184434
86	0x3fd0519c43834b3c	0.2549811038308467
87	0xbf9b1e2d944ecf51	-0.02648230760287557
88	0xbfc3763110574fef	-0.15204442308333863
89	0x3fe014ddad9064aa	0.5025471105501726
90	0x3fec451aa1e12e4f	0.8834355508528889
91	0x3fc4c23713b61ae0	0.16217697584598678
92	0x3ff65bb9109728fe	1.3973932884278493
93	0x3ff6052d09a09166	1.3762636543334223
94	0xbfcb2d8bd68a8b5d	-0.21232746101039882
95	0x3fc4e3629c2f8a26	0.1631892454743859
96	0xbf928788bc35f926	-0.018095146644094083
97	0x3fd3363d448c0d68	0.3001855058102678
98	0xbfd0cafb8c441fc5	-0.26238907525884897
99	0xbfb463266d528662	-0.07963791054728511
100	0x3fd05c475741e77d	0.25563224335893847
101	0xbfa6142ffc102379	-0.04312276794377729
102	0x3fd0ae2764a7b4de	0.26062950925445516
103	0xbf96d30743ccb1dd	-0.022289384377630717
104	0x3fedd8290f4c341d	0.9326367663176175
105	0x3fe930c7b2b08e82	0.7872045984299378
106	0xbf8d77abda1b984d	-0.01438841113435898
107	0x3fa1a21bfbc5ea8e	0.03443992088701463
108	0x3fe10c5eae9ff169	0.5327599917068656
109	0x40145250d492d4e5	5.080386468374148
110	0x3fe2e2191f7c477f	0.5900998702002055
111	0x3fd867d5abb4af83	0.38133756416458925
112	0xbf8c53f6d95f4d43	-0.01383202410571605
113	0xbf89fce50479860f	-0.012689389418656409
114	0xbf907255f58baf0b	-0.01606115637962006
115	0x3fd382bff37ac561	0.30485533501913237
116	0xbf92cca3d5a88b92	-0.018358764568016613
117	0xbfae0ce0ebdaa480	-0.058692005911617606
118	0xbfabdba9c7df7f96	-0.05441027226311161
119	0x3fdf4a12b9211971	0.488896065512015
120	0xbf9176c392291c4a	-0.01705461101144249
121	0x3f9bb7e1af05ff96	0.027068640048582525
122	0x3fd234737bc5825b	0.28445136153280765
123	0xbfc1d4a655d029f8	-0.13930205526442285
124	0xbf8a8f454e5f6fd9	-0.01296857972550207
125	0x3fb31253f8819ae6	0.07449841324851611
126	0xbfb3a111ecefb17f	-0.07667648348405541
127	0x3fdea9a38fe413e7	0.4791039376435137
128	0x3fa439fd50309890	0.03950492481116996
129	0x3fe4423e02335ed7	0.6330862086278682
130	0x3fa3fec548c1f937	0.03905312073855998
131	0x3febc62e082dd0d9	0.8679418716187924
132	0x3fb99c233b2fa97f	0.10003872103667354
133	0x3f8051f3256c178e	0.00796880681947323
134	0xbf8547d793503d37	-0.010390934165143235
135	0x3fd10a8954912e9e	0.2662680936671026
136	0xbfb356a98a712f1f	-0.07554111127791117
137	0x3fb399d33abe89b8	0.07656593498408071
138	0x3fd0ebd9d6c2bd36	0.26439519856190274
139	0x3ff6202606af351e	1.3828487645253698
140	0xbf929ebe7c3c230c	-0.018183685620019083
141	0xbfa582ced8be8840	-0.042013610799827905
142	0x3ff67d6808ddb1fe	1.4056167932823196
143	0x3fde6967b4c5b723	0.47518341687724525
144	0xbfc77de55edf572b	-0.18352954037134714
145	0x3f92d3525299239f	0.018384252826112776
146	0x40011400c34a7efc	2.1347670800313363
147	0x3fe3db7737c6f4b2	0.6205402459524036
148	0x3fa176b16a08355d	0.03410868090950701
149	0x3fe8121a82da2604	0.7522099071222219
150	0xbf7febd3effe6e0f	-0.00779326236797885
151	0xbf8a8eecdf611aa1	-0.01296792084407389
152	0xbfc8f1d8eb616f5e	-0.19488059514230377
153	0xbf6cb03c046acc46	-0.0035020038806919144
154	0xbfbaeef54c7f4622	-0.10520871274572888
155	0x3ff17d19cb1455f9	1.093042176512766
156	0xbfba31519b7322ea	-0.102315044833755
157	0xbf63466f6573a335	-0.0023529220303441186
158	0x3fea306bfc1e99fe	0.8184108661851608
159	0xbf86876ebcd19e81	-0.011000504624646414
160	0xbf90892d66458a3f	-0.016148290030637332
161	0x3fe783bb1cbfc285	0.7348304330353846
162	0x3fe03d97df85f28c	0.5075187078178529
163	0xbf8345d8697f7ca2	-0.009410563201468772
164	0xbf8b4d5964876d64	-0.013331125622179037
165	0x3fc83c88da9188b4	0.18934736892976434
166	0x4005f8faa6a202f2	2.7465718286697376
167	0x3fce908b1e27f935	0.2387861153837975
168	0x3fa68d76013619d7	0.04404801144396558
169	0xbf8bed41937f1ddd	-0.01363612395642993
170	0x3fd2737ef36a81fc	0.28829931040857537
171	0xbfc0b8e9c75d8bd9	-0.1306431029762212
172	0x3ff7d95ed984f16b	1.4905689713333128
173	0x403e74217fba1fb9	30.4536361531643
174	0x3fe622bac9d2721d	0.6917394582592952
175	0xbf7e58034c5a2ea1	-0.007408154376786464
176	0xbf87d0e673bd9723	-0.011628914267656726
177	0x3fbe3a7cea506390	0.11807995529706106
178	0x3fae14d02e4071c0	0.058752542158092336
179	0x3fb41f4f57c13e2a	0.07860275165989408
180	0x3ff0413d76b9a365	1.0159277570439482
181	0x3fd64e01c2ba24b0	0.348511161959844
182	0xbfc03ae0dde1fd85	-0.12679682573432785
183	0x3fbec6564fc950d7	0.12021388481054217
184	0x3fe1e2afb3102597	0.558921670658651
185	0x3fb4a3b8c0c29241	0.08062319475227132
186	0x3fd03bf3fbb5aea2	0.25365924435639375
187	0x3fd7e6a866af07cb	0.3734532358904487
188	0x40072007f74a2df9	2.890640193892747
189	0xbf705e9305726cdc	-0.003996443082679959
190	0x3fd7beb0b7f08809	0.3710138126645011
191	0x3fe0e93f1d3a9d33	0.5284724779966495
192	0xbfd067d71a097cca	-0.25633790533715894
193	0xbf8b1c20e37316d7	-0.013237244549951495
194	0x3fb6f871ee63dcd6	0.08972847051687735
195	0x3f87a4c9a7bf131d	0.011544776374543592
196	0xbfc92bde3a8fb7d7	-0.19665124759143168
197	0xbfaead371a496ba5	-0.05991527744182371
198	0xbfcd10180abe7f83	-0.2270536472760761
199	0xbfc06b66721c6dec	-0.12827759334400868
