yuce/data_par/weight_4.npy (npy, 6528 bytes, 1 tensors)

array f8 [1, 1, 800]
-2.1098765302069236 -1.1478984223452475 -0.0035917039106590663 -0.3011031053709818 0.1113142734579944 0.3600234291143526 -0.26783142288645473 0.5372613068652474
0.961802366124352 -1.0662339205738005 6.457004876685583 0.5117171639140612 -2.457929588976647 5.22746884316935 -0.0051172514461243854 0.5596906622027584
-0.6142640721492494 -0.003226268542161178 -4.98604504182804 6.469416090549527 -0.10353448801084118 1.6040179653793079 -0.45159838325570045 0.46869544014416825
3.4419968129113117 0.009451712980464233 0.5112952315185811 -24.389887574688785 0.7753585045103297 -1.9154718053914008 -0.3257677018098198 0.25558752160552284
0.5384061323476119 0.5690245271119359 -0.2268143341601246 -2.0992439862178474 -0.10163332318178216 0.27331195532333913 -3.1680134508567033 0.0029564539224885603
6.0495425206105296 1.197501983051105 0.5354995525432606 -1.670152895458296 0.1453445829351245 -0.5100792599440624 0.02881644952079334 1.2618686821310061
0.006112690701140547 -0.34091982267014664 -0.004868202449154156 -0.647876020607458 -1.4277852361832413 8.730888751365837 5.113336585707088 0.5838653647690292
33.22800871537411 -0.4621517194181601 -5.11404891476713 0.368772557502251 -3.0463759598487883 0.48435323370623373 -0.4669553814063411 2.278509273663529
0.001660760229038405 -0.22193828766819193 -4.54601801445507 0.07884523881639115 -0.8876368882958314 0.3020490440336529 0.009394390136621583 -2.137265547521387
0.10761446373906204 -1.6929054343852241 -1.086253162589666 1.2396379789786862 2.496922772437242 0.8210421904489147 -0.4801955627090134 0.3845237421936228
0.7154872211784071 -1.9001106712460154 0.731865376842745 0.5426359864986999 -1.1156669115472369 1.8562989868453288 0.18348852575843513 3.004548183223265
-0.08146592918637884 1.347702167081493 0.3313251861594735 0.0025751860909509487 0.06030350739774212 3.505564725433213 -1.8448527413246545 0.004209046158296656
-0.805689939976739 -0.0033292932643251513 0.823252131035433 0.7098081968829566 -1.3257857477514585 -0.5914960371527721 -0.34129520515782974 -0.02532504953305797
-0.002993816421192799 -0.5330917938648551 0.004768696490702719 -0.0015272530420017705 -0.13721322647910358 -1.6698213696059303 1.0814319072591898 -0.3365378671845708
0.8704756387492407 0.0042007967892003836 -2.1046353254547387 -0.004852714226064866 -1.6326234712145584 -1.7231523095146026 -1.3220082458398776 -2.6078856988688357
0.17266461011454395 -0.001604579929035995 2.143608587634202 -1.3498225176136047 2.7934069410091684 -0.0011435633838742022 -1.3702038704382635 -7.611992412234814
-2.86108542963826 -0.7170397222751113 -0.2889374634339715 0.6468309851139028 -0.006776045692520634 -0.37096847656031784 -0.0009847158729862993 -0.22791354919450973
4.9019486162162975 1.2277635563250182 1.638209175801791 0.30620398425750145 1.0220129972864411 2.4464822478668644 -0.0017545692794527772 1.87071790643543
0.07521665772635645 0.25042745156047663 -2.8290820478634853 -0.06418370357331613 -2.1211783305322185 -0.2367029050193294 0.3341960874297351 1.2659504477647616
-0.26274084102213574 2.0951923643511736 -0.0022676492730159103 -0.432681061954626 0.9945798736156656 -1.4449774104032156 -0.6383145601155227 0.8682315463196495
3.370539610075808 0.14073670839416788 -0.05060124254418206 -1.686925420907686 -1.0467316178719506 0.284174154259697 3.4862956893218313 -1.1876084060337475
-1.5292956653141112 -0.12670141201193424 -1.9001913530054027 0.08059502776253395 -3.646547529941486 -0.30582180465571207 -1.070522058133381 3.1662016174028103
-1.6288994946636537 0.4382463971094434 4.515256971358882 -0.5977261444717117 0.42047826917641473 -0.42704852726823894 -0.20582287210249203 3.142619558941857
5.514657810085346 -1.3795749686174643 0.671437539197296 0.2749298252692509 -0.8429823239823659 0.18823444825197527 3.108953181021738 -0.14775616849755674
0.21820048173827908 0.362106421322014 0.4308975855541104 0.3133466997099861 -0.195781252966405 -1.279642008149565 -0.09808155587124297 2.1856136001881574
6.968626150166556 9.218670868256272 -5.91986277517805 3.613808330786621 0.06642262198252798 -0.5441710747005459 -0.9786341995122991 1.1420188069163866
0.29759004369048114 5.779871962309876 0.2877357876931239 -0.0020663838644222987 0.2624014460620555 0.6489469484647659 0.14712661379954892 -0.6274335357198253
-0.8949563491797532 2.5125309829199365 3.881828713298537 2.5024098772149874 -2.7068676289829865 0.3760049363675169 -3.7189859075488996 -0.37948501055464423
0.003431242894739486 -0.9431534233389717 0.494178925657653 -0.003379834284786528 -1.0954140566643438 -1.051142766967844 -0.0015215907477386036 3.5406308062837772
-1.1441846887211438 -0.042401424201458184 2.2069740927191512 0.15242701972844006 0.3377068594741744 1.6810275121661775 1.1312966798917985 -0.7113885073433269
7.503017547889385 3.1536261712421645 0.65868663929427 -8.09959055355946e-05 0.582527969109297 -0.24033195207812605 0.08936576760242827 0.6444839027977769
20.83364006835161 0.08542575758349655 0.3111691490941449 -0.00635072515547194 -1.815419641134573 1.4726829419398018 0.7275779476883166 -0.004098276138785599
00000000: 8cb1 3ef2 06e1 00c0 35a5 71bc ca5d f2bf
00000010: a68a a95a 596c 6dbf d3b6 92f5 4545 d3bf
00000020: 9180 149c 177f bc3f 3ac1 75b5 9f0a d73f
00000030: addc 8868 2624 d1bf 048f cc9f 3e31 e13f
00000040: 3a06 77c1 15c7 ee3f 5f01 ac4c 4b0f f1bf
00000050: 8be8 1d16 f9d3 1940 2a02 7aac fc5f e03f
00000060: 1034 04fd d6a9 03c0 d315 a997 ede8 1440
00000070: ea46 b4b9 d3f5 74bf a232 4164 fce8 e13f
00000080: 56a4 9f20 0da8 e3bf 78e4 0dbc f96d 6abf
00000090: 3623 9cca b5f1 13c0 6d81 949c aee0 1940
000000a0: 37c1 0378 3c81 babf 6802 f8bd 0eaa f93f
000000b0: 0c9f c0e7 fce6 dcbf 9b06 cd28 1bff dd3f
000000c0: 5d1f 03a0 3589 0b40 cd5f 2371 6b5b 833f
000000d0: 4323 3fd1 875c e03f b467 0eac cf63 38c0
000000e0: c483 71a3 bccf e83f ec0e 89c3 c5a5 febf
000000f0: bd70 57c6 60d9 d4bf 35ee a3c3 8b5b d03f
00000100: 4ec3 4c7f 9f3a e13f 062a d2ec 7235 e23f
00000110: 02aa bd89 4008 cdbf ea0a 596e 40cb 00c0
00000120: b5e2 3f37 a404 babf 2f0d 6e6d f17d d13f
00000130: bcbd a56f 1758 09c0 0b53 181d 2238 683f
00000140: 7022 4746 bb32 1840 2298 e1d6 f728 f33f
00000150: 2045 26f5 cf22 e13f 6902 153e f2b8 fabf
00000160: 17b6 2dbb a69a c23f f47b 7abd 9152 e0bf
00000170: 6654 1d31 0f82 9d3f b296 1937 9d30 f43f
00000180: aa6f 6eea 9e09 793f 204a 3b60 a1d1 d5bf
00000190: cb66 f324 aef0 73bf 97e4 0b7e 66bb e4bf
000001a0: 05e6 f154 35d8 f6bf d742 e80c 3776 2140
000001b0: 7f35 8481 0e74 1440 2567 de6a 06af e23f
000001c0: 0dde bb63 2f9d 4040 0f3c 2cce e493 ddbf
000001d0: c646 1c3d c974 14c0 ca9a 8836 f899 d73f
000001e0: 20f8 f65b fa5e 08c0 44ba 9eb4 a4ff de3f
000001f0: 5636 f5d2 98e2 ddbf fc23 f011 633a 0240
00000200: 67a4 b1b7 bb35 5b3f 99ef a14b 7968 ccbf
00000210: 0e72 ac58 1f2f 12c0 cf65 299a 332f b43f
00000220: 8a85 be79 8567 ecbf 1768 7a83 c554 d33f
00000230: 03a3 38b3 5d3d 833f 6fc6 ebad 1e19 01c0
00000240: 39fa 551a 9f8c bb3f bf7b 3e02 2416 fbbf
00000250: abfc 07ff 4a61 f1bf e67c 29a2 8ed5 f33f
00000260: 7a0b 82a5 b2f9 0340 48a8 9345 fa45 ea3f
00000270: fa3f 612b 86bb debf 1175 5078 099c d83f
00000280: 8459 f574 45e5 e63f 1284 7c72 da66 febf
00000290: 64a8 53f0 706b e73f ada0 f424 465d e13f
000002a0: 0032 258c c5d9 f1bf f493 0191 66b3 fd3f
000002b0: 1170 a950 8d7c c73f e299 d18e 5009 0840
000002c0: efff 977d f3da b4bf 3ed0 c525 3090 f53f
000002d0: e458 b98d 6e34 d53f c100 5681 8e18 653f
000002e0: acfc 36f0 19e0 ae3f 97f9 cd84 650b 0c40
000002f0: 30ce de4e 8484 fdbf 0a4a 8e39 813d 713f
00000300: 4e52 dd44 36c8 e9bf b5db 0cb6 0846 6bbf
00000310: 8e1a 65da 1458 ea3f de70 01ae bfb6 e63f
00000320: d786 c11d 6b36 f5bf bb1c e918 89ed e2bf
00000330: acce 1bd8 c7d7 d5bf cf66 0e4e cfee 99bf
00000340: 1fe7 d0f3 7c86 68bf fd4b 8d85 160f e1bf
00000350: c2cb 8d37 5788 733f 852e 8f77 c305 59bf
00000360: d337 27f8 3390 c1bf 0fe9 c99c 96b7 fabf
00000370: 4c77 288b 8b4d f13f ba17 5b1f d689 d5bf
00000380: fe90 0cba efda eb3f 0666 3acd da34 713f
00000390: e4ac a60b 4bd6 00c0 3c51 5d8e 70e0 73bf
000003a0: c3c6 f8c9 391f fabf fe45 f627 0892 fbbf
000003b0: 2ccb 4e1e f226 f5bf 33c8 622d f3dc 04c0
000003c0: e12c cfba df19 c63f bcf2 6a94 184a 5abf
000003d0: 5a82 5a42 1c26 0140 87e0 087f df98 f5bf
000003e0: 246e 00bd e558 0640 9ac9 6ad5 73bc 52bf
000003f0: cf28 c6e4 5aec f5bf 72cb 8f23 ae72 1ec0
00000400: 14de fac1 80e3 06c0 4658 a349 fdf1 e6bf
00000410: 4970 028f f37d d2bf 4f51 e3e4 d6b2 e43f
00000420: 6249 54ea 32c1 7bbf c01a ab90 f2bd d7bf
00000430: a4db 199e 3222 50bf ca87 0d6c 452c cdbf
00000440: 2b49 056b 989b 1340 8b2f 1a66 eba4 f33f
00000450: 8136 21d3 1a36 fa3f 939d 9298 d898 d33f
00000460: 4cea f64c 2a5a f03f 78a9 e648 6592 0340
00000470: fdcc 1f6b 32bf 5cbf 7de8 42e6 75ee fd3f
00000480: 9193 0c1d 6641 b33f 8643 9edc 0007 d03f
00000490: ec31 cac4 f5a1 06c0 ce96 c8db 576e b0bf
000004a0: 43f5 3458 2cf8 00c0 2e8e f6e1 474c cebf
000004b0: 438f 7dfc 7763 d53f 6d19 b841 5541 f43f
000004c0: f5de e0f5 bed0 d0bf d7bc dd36 f4c2 0040
000004d0: dcc2 ecee 9a93 62bf 1165 ace8 0bb1 dbbf
000004e0: 150d ce2b 99d3 ef3f d23f 12a2 a01e f7bf
000004f0: ac37 08a8 126d e4bf 868c 1986 8dc8 eb3f
00000500: 7d2f 9978 ddf6 0a40 6527 f313 a903 c23f
00000510: cd7b baf3 67e8 a9bf c86e 9982 a5fd fabf
00000520: e92f 27a7 69bf f0bf a57c baca e82f d23f
00000530: 9795 8efe eee3 0b40 06ea 05ac 7100 f3bf
00000540: ca04 47bb fe77 f8bf 3661 797a c037 c0bf
00000550: 9acd 540c 2f67 febf ebd5 7530 e0a1 b43f
00000560: 1f44 831c 212c 0dc0 5699 599e 9592 d3bf
00000570: 8f45 d5bc db20 f1bf 8b4c 7a83 6154 0940
00000580: 34d2 a0ea f80f fabf 5f31 cb9d 3a0c dc3f
00000590: f216 0486 9f0f 1240 a80b 4f94 9220 e3bf
000005a0: 12a6 b2af 1de9 da3f e002 9b58 c354 dbbf
000005b0: a378 3964 6758 cabf da66 2bb9 1524 0940
000005c0: 48ca fb74 020f 1640 cc79 c933 bd12 f6bf
000005d0: 6217 0594 6a7c e53f c87d 0e44 7398 d13f
000005e0: e487 1311 b6f9 eabf f685 9cff 1018 c83f
000005f0: ad44 6ad8 22df 0840 c658 bd93 ace9 c2bf
00000600: 03c8 844e feed cb3f 38fa 4f69 c02c d73f
00000610: 4856 7877 d393 db3f 5017 e450 df0d d43f
00000620: f38e 542f 5c0f c9bf 3e71 f9e5 6979 f4bf
00000630: 05cb ce72 df1b b9bf f501 b4fb 227c 0140
00000640: 1f10 9488 dfdf 1b40 4a7f c7a0 f56f 2240
00000650: 44ca e081 f0ad 17c0 56ed 9557 14e9 0c40
00000660: c528 21ad 1201 b13f 9a93 2875 d969 e1bf
00000670: fce0 34ab f850 efbf 11f7 3183 b545 f23f
00000680: 5203 511c b70b d33f c8c0 74c1 961e 1740
00000690: 14f8 815d 436a d23f 5731 cc63 85ed 60bf
000006a0: e29d 506f 2fcb d03f 68d8 0f64 2cc4 e43f
000006b0: dbf4 517d 0bd5 c23f cc91 8a7e ef13 e4bf
000006c0: 1863 627f 7ba3 ecbf 769f 0ed8 a919 0440
000006d0: ec53 6236 fc0d 0f40 219b 3e78 ef04 0440
000006e0: f6a9 2837 aaa7 05c0 a150 3502 7710 d83f
000006f0: c3a8 f9ae 7bc0 0dc0 e2e1 697f 7b49 d8bf
00000700: d3ac 8f80 d61b 6c3f 113e 8b16 502e eebf
00000710: 389c 04a5 a0a0 df3f 4585 02b7 06b0 6bbf
00000720: 963b cfe3 d086 f1bf 86dc f813 7bd1 f0bf
00000730: e1b7 f69f 03ee 58bf 6b97 813e 3653 0c40
00000740: 9242 aa9a 944e f2bf 2d88 7fb4 a3b5 a5bf
00000750: c2c8 7a08 e2a7 0140 af54 6184 ba82 c33f
00000760: 81e4 443b fd9c d53f 2de1 c61a 7de5 fa3f
00000770: a756 238c ca19 f23f 6946 b9d4 b1c3 e6bf
00000780: 00ff 3508 1703 1e40 bc5b aa5b a03a 0940
00000790: dd97 c200 f613 e53f f128 c10f 8b3b 15bf
000007a0: 248d 0ab2 11a4 e23f 8300 2e89 32c3 cebf
000007b0: 65ff 3bc9 ace0 b63f 9e13 aab4 9c9f e43f
000007c0: 9334 7e6f 69d5 3440 d6a0 0e63 76de b53f
000007d0: 458b b801 32ea d33f dd03 94cd 3703 7abf
000007e0: 5706 3377 f50b fdbf e122 10fd 1b90 f73f
000007f0: 7a96 538c 5148 e73f 38e8 c69f 5ac9 70bf
