yuce/data_par/weight_9.npy (npy, 6528 bytes, 1 tensors)

array f8 [1, 1, 400, 2]
000000 76 ee ad 34 d8 81 b4 bf 36 1e af 0f 23 81 e9 3f
       -0.08010627065771722 0.7970137888268656
000010 8b 1a f0 60 5c 87 7b 3f 25 9b be 87 10 11 7e bf
       0.006720887045054478 -0.007340492793366936
000020 e4 38 db 32 40 f2 e0 bf 0b 7a 61 8f 23 75 b6 3f
       -0.5295716279304341 0.08772489786631625
000030 7e 07 f2 e0 d9 80 d5 bf f6 1f 15 c9 c8 e3 cc bf
       -0.3359894463284191 -0.22570142572862978
000040 0c 69 1b dc 28 cc d6 3f 73 c5 ba e8 6b fd 98 bf
       0.3562109136088487 -0.024404226379095072
000050 1d fb f0 8b c1 33 d9 3f 03 f7 d0 6b 55 75 ca bf
       0.3937839380850379 -0.20670573963609948
000060 19 74 00 0a d4 e2 ae 3f 1f bd c4 bb 65 f8 ce 3f
       0.06032431242076814 0.24195548694977106
000070 cc 78 9a f4 b6 36 e2 3f 69 12 53 4a 68 f8 e2 bf
       0.5691790368471401 -0.5928231670046219
000080 0a 35 d8 0b a8 bd b5 3f 9c 75 07 bd f7 d3 b0 bf
       0.08492517747091113 -0.06573437085122297
000090 aa 2f 38 d4 02 4f c3 bf 77 52 9e f9 fe db d8 3f
       -0.1508487259128491 0.3884274900131354
0000a0 b5 a2 e9 20 a3 05 c9 3f e2 18 2c 02 da 49 a9 bf
       0.1954845343309636 -0.049391567959945495
0000b0 8b fe 9e 3c d9 d3 a3 bf 18 7d 9b d9 45 2d d5 bf
       -0.03872565140727343 -0.3308882355758711
0000c0 50 99 34 a6 fc 31 e6 bf 82 c8 a4 8b 49 5f dc 3f
       -0.6936019178581692 0.4433158744533402
0000d0 aa 91 85 bd 8a 30 85 bf ee ac 20 ba 56 14 83 3f
       -0.010346492680306369 0.009316136889614825
0000e0 75 66 76 7d 85 d1 99 3f d4 3e bf c7 57 b9 ce 3f
       0.025213323385833115 0.2400312161757855
0000f0 0a 0c ae 42 29 ac 8a bf 79 36 96 5e c9 ad c0 3f
       -0.01302368387928789 0.13030354612822118
000100 96 8f 7f 81 01 87 f9 3f 20 6a 6a ee 06 a8 d0 bf
       1.59546042046802 -0.26025555880338125
000110 5a 19 da a4 0f 41 e6 bf 00 c5 48 d8 4d a4 d0 3f
       -0.6954420299305568 0.26002832528600095
000120 e7 76 c2 ab 1f aa a0 bf a0 59 be 12 39 0f ba 3f
       -0.03254794093775875 0.10179478366476369
000130 f7 15 4e 7e 55 2c d1 bf 22 83 dd 80 88 f9 91 3f
       -0.2683309300849425 0.017553456178009637
000140 69 fc 9d e5 79 36 ef bf 94 33 63 57 74 cf a6 bf
       -0.975399921866381 -0.04455150191061033
000150 82 71 3d dd 58 ab aa 3f d5 54 4f ce ce 1a ac 3f
       0.05208852482494121 0.054892027553856394
000160 a6 5a e4 f6 a5 9d 75 3f 84 e8 f1 dd 76 0e 82 bf
       0.005277298258326601 -0.008816651008818129
000170 ad d9 b2 94 ea 87 d5 bf 21 6a bf 3a bf b2 8a 3f
       -0.3364206745276544 0.01303624532731812
000180 86 03 2d 0d 03 6f ee 3f 8b 97 8e 1a 9c 26 f3 3f
       0.9510512597408798 1.1969262158758933
000190 2e cd 92 c2 df 02 c0 bf 77 60 47 0e 23 e3 d2 3f
       -0.1250877094331399 0.29511333841720194
0001a0 7f 45 81 a5 42 41 c8 3f 8a a7 0d 3c 7d 2e cd 3f
       0.1894915874604912 0.22798123771945839
0001b0 56 dc 10 3d 88 c6 58 3f 18 8b 45 12 17 f2 81 bf
       0.001512177510688569 -0.008762531514269464
0001c0 ee 07 c7 18 72 07 d8 bf d3 6b 17 d2 f0 de d4 bf
       -0.37545444888757984 -0.32610722080943083
0001d0 05 32 65 5d 2c 8d a2 3f de f5 70 73 ab e4 da 3f
       0.036233316803734573 0.42020689271507006
0001e0 06 f2 38 2b b2 73 a5 3f a9 b0 8d eb e0 93 a6 3f
       0.04189831521623337 0.04409697413834241
0001f0 74 f6 6c d3 dd 8b a3 bf 7b 12 73 06 f6 ba b5 3f
       -0.03817647176627484 0.08488404900988115
000200 bc fc 23 c5 0b 8b c5 bf 2f 34 ce 2a 74 48 df bf
       -0.16830584646229407 -0.4887972276708891
000210 c2 d5 2b a6 01 f8 d6 3f 40 70 e5 62 b6 37 d4 bf
       0.35888711192759726 -0.3159004178794511
000220 24 d2 be 02 f9 f0 6b 3f 5d 11 fd 2f a3 c1 08 bf
       0.003410803174086279 -4.721907862273681e-05
000230 32 17 90 a5 cf 04 d2 3f 2c 07 ed 2c 0c 07 c0 3f
       0.2815436474632974 0.1252150744785977
000240 97 9f 31 50 1a c1 49 3f 1e 4b 6c 49 fa 87 80 3f
       0.0007859590990735185 0.008071856847470079
000250 7a 0f ee 1c ad 7d a9 bf 4f ee bc fa 05 36 ba 3f
       -0.049786958486065694 0.10238683101209144
000260 a4 ad b9 55 21 cb d4 bf fe 7c 2a 4b 9a 72 dc bf
       -0.32489808436977285 -0.4444947942774461
000270 79 43 48 20 bb 1e d2 bf ab 5e 29 30 1e 80 dd 3f
       -0.2831256690270077 0.4609446974113591
000280 f6 ab 56 bc ec a3 e0 3f a5 5e bc e3 19 1a a6 3f
       0.5200103453147438 0.04316788582781087
000290 fd a4 11 51 66 03 a9 3f ce aa 78 64 57 07 c3 bf
       0.048854062458142146 -0.14866154104068702
0002a0 33 f4 ae d8 7d e8 c7 bf ab 6c fa fe d2 51 d3 bf
       -0.1867825801872712 -0.30186915302483425
0002b0 fa b6 c8 83 5b 4a 83 3f 93 09 02 7f e9 4f b8 3f
       0.00941916938708286 0.09496936178951491
0002c0 57 40 c4 71 25 7f d2 3f 2d 94 9e 7f 1e 9b 91 bf
       0.28901039228458586 -0.017193295039437274
0002d0 0a 1b 8d 15 63 71 8d 3f 59 d8 ef 9c 35 4e bd bf
       0.0143764248802092 -0.11447463113276636
0002e0 bb dc d4 e7 0d c3 bf bf d9 93 81 4e ff 9c a2 bf
       -0.12407004270504533 -0.036354044278404
0002f0 12 a3 3c 99 4d f4 ea bf 20 0a 26 b6 ea ce d4 3f
       -0.8423221581370817 0.3251292017741054
000300 fa e2 83 70 c5 61 c7 3f df 53 94 80 9c bc d2 bf
       0.18267124170213106 -0.29276192242224214
000310 2e c3 99 2f df 5a bc 3f 5f 39 00 62 af 1c c8 3f
       0.11076159393429627 0.1883753994483852
000320 2a 5b 8c 40 da ce 9c bf a1 fb 75 8a 16 21 ca 3f
       -0.028132829847062592 0.20413476715836246
000330 1c 77 4c fd 94 5a c4 3f 3f 8e 51 f4 37 39 8e 3f
       0.15901434295749872 0.014757573264609579
000340 2f 3a b7 e0 fb 6b 37 3f 85 3f e8 77 5f 58 88 3f
       0.0003573884902977912 0.011887307974603587
000350 5f d2 d0 52 eb 00 c0 bf 5e 76 65 ac c3 76 ec 3f
       -0.12502805274711457 0.8894976012340512
000360 24 6c a0 6a bc 0d b1 3f 40 e9 77 1b b9 2c 8b 3f
       0.06661584475698185 0.01326889624668992
000370 b8 57 06 36 45 78 d6 bf c8 c1 b1 a6 4c e8 af 3f
       -0.35109071994645147 0.062319178913529394
000380 2a db d7 4e 5f ab d8 bf 96 28 69 a3 6b 47 ac 3f
       -0.3854597349122054 0.05523239488373226
000390 39 d4 d8 85 a2 79 b1 bf 23 b2 84 b8 21 09 b2 3f
       -0.06826225059269654 0.07045183901636469
0003a0 65 d9 70 f0 e8 c1 d9 3f 1e db 57 7e 87 4e d8 3f
       0.40246032219456246 0.3797930463619411
0003b0 9f 43 15 ea 2e f0 bd bf ac e1 5f a2 b2 69 c0 3f
       -0.11694615569036991 0.12822564056820107
0003c0 b3 de 5f 72 23 9c a5 bf 64 65 44 02 88 be a4 3f
       -0.04220686694310185 0.040516138340715796
0003d0 85 64 8c ba 49 3e 94 3f 53 64 3d 2c 97 4d 81 bf
       0.019768859873782425 -0.008448773419944688
0003e0 ad 6b 3b 74 05 4d b8 3f 04 4f 20 8d f9 96 b4 3f
       0.09492525184343377 0.08042869277442938
0003f0 bd 34 df 2f 26 62 da 3f dc 12 de 15 ef 17 b8 bf
       0.4122405498026856 -0.09411520274995716
000400 ec ab 6c 84 08 d2 c0 3f 7f fb 35 cd 5a 00 d7 3f
       0.13140970674552876 0.3593966487896338
000410 8d 27 eb 9d 2b 9e db bf d1 bf b0 52 1f 77 cc 3f
       -0.43152895375953265 0.2223853257905817
000420 d6 26 45 b1 95 a0 a0 bf f2 73 9e f9 86 8e d4 3f
       -0.032475164307994284 0.321199172752869
000430 3f 8f 11 65 97 69 d8 3f cb 54 3f b1 b1 20 c9 bf
       0.38144478673915566 -0.19631024508149716
000440 eb c9 4b fb 46 15 dd bf fc e0 7c b9 fb 98 cb 3f
       -0.4544236616194712 0.2156061797811687
000450 b3 d4 58 9b e2 df c4 3f ef 6d 2e 58 1e bb c2 3f
       0.1630824335603954 0.14633540445070944
000460 b7 03 d9 28 1b af db 3f c3 c0 38 15 a6 cb d5 bf
       0.4325626276877829 -0.34055473396712105
000470 c7 d8 7f 4e bf eb 6f bf a3 99 c4 fc 1b 70 b1 3f
       -0.0038965927560595556 0.06811690255253793
000480 27 ac b9 52 85 69 dd bf 5d 04 3d 37 16 4a b5 bf
       -0.45956547812119414 -0.08316172455399014
000490 6d 16 b3 bc f6 63 9a bf e3 f2 db 7e b6 14 ca 3f
       -0.02577195669871062 0.20375710672660494
0004a0 81 79 d4 cd 15 3f c8 bf 3a 95 e9 9b 09 2c a2 3f
       -0.18942520666400856 0.035492229730872585
0004b0 4a aa 7c 90 69 a9 bd bf 3f 9b db 94 7f 87 c3 bf
       -0.11586627748025893 -0.15257258194398024
0004c0 37 24 ae 34 03 cf d7 bf a2 9f 4a 45 0d af c7 bf
       -0.37201004166178414 -0.18502965815900746
0004d0 dc 16 a0 7b d3 3e dd bf 17 77 03 83 43 ad cf bf
       -0.45695960114276857 -0.2474750890459567
0004e0 c6 d5 d8 45 7f 36 d8 3f 6c 11 43 39 7f ce e0 bf
       0.3783262426471449 -0.5252071493528496
0004f0 4a 49 46 68 a4 ae ce bf 22 38 bf 2d 67 04 c2 3f
       -0.23970465747386022 0.14075937017190748
000500 05 87 c0 98 28 a2 69 3f 77 1b 31 56 95 3b cd 3f
       0.0031290810493523912 0.2283808394297144
000510 f7 2b 89 b5 74 f1 db bf 0b 3a ba 79 0d fb c9 3f
       -0.43661229827983966 0.20297401851389937
000520 5e 07 04 2d 2d e4 96 3f 89 72 b1 c0 17 d0 d9 3f
       0.022354799149077002 0.40332597558680355
000530 ed f3 9e e3 e5 63 d9 bf f1 b1 5b a7 6b da c7 bf
       -0.39672229031185574 -0.1863531653574593
000540 d1 d3 e9 62 1c da d7 3f 44 49 d7 9a dc 0f f0 3f
       0.3726874319029863 1.0038724945521418
000550 23 b8 0c c7 35 c6 da 3f 62 03 9c 11 a6 0d c0 bf
       0.4183477825016572 -0.1254165254577187
000560 5d 12 6c 24 ed ae ea bf f2 dd 94 c7 8d b0 de 3f
       -0.8338533126230449 0.47952599039442056
000570 16 6e bd 9c 94 34 e0 3f e1 a4 20 6b 7c c7 00 40
       0.5064185201003422 2.0974052781426598
000580 d5 44 8c 47 bf 22 b0 bf 20 7a e6 5b 07 0e e3 3f
       -0.0630301999738266 0.5954624934127573
000590 0f 50 9e db 93 a1 a7 3f 4e 14 64 f6 14 40 cd 3f
       0.046154614027870015 0.2285181239205109
0005a0 48 e1 5b 6e 90 db d1 bf fe f1 14 13 f9 4a 76 bf
       -0.27902613427388134 -0.00544259352437537
0005b0 f3 6b 47 81 94 7c d8 3f 33 c9 d7 d4 fc 0b bc 3f
       0.3826037657251497 0.10955791660652352
0005c0 25 c9 9f 9a 92 01 9e bf 82 27 73 11 9e 2f 92 bf
       -0.029302874267110774 -0.0177597711706663
0005d0 d3 43 d2 43 e3 48 ae bf 93 d2 d5 39 0d 3f ba 3f
       -0.05914983942887599 0.10252459203713675
0005e0 1e 3a fa 67 89 36 7b bf 0d e5 14 c4 95 c4 aa 3f
       -0.006643807165927855 0.05228107470106567
0005f0 33 e4 4b 59 b0 1b 65 bf dd c9 4e 16 84 7e 56 3f
       -0.00257667964103494 0.0013729371942018322
000600 31 14 e5 7c 64 db 90 bf 90 fe aa 44 7b 4d c9 3f
       -0.01646191608712772 0.19767704823424426
000610 f6 75 a3 94 65 d3 6e 3f d4 0b 10 97 6e bc 81 bf
       0.0037629112240284935 -0.008660186753337053
000620 77 82 d1 53 30 aa d6 3f c0 05 40 53 a5 42 e1 bf
       0.35413749871626216 -0.5393854738214756
000630 1e b5 77 c0 dd d2 d0 bf 97 4e a9 20 ad 14 77 3f
       -0.2628702525679091 0.0056349528118350345
000640 69 4b 07 83 a7 3a b8 3f c8 9d 56 c5 c8 fa 92 bf
       0.09464499424875118 -0.018534791035248493
000650 e6 f7 87 74 15 39 b1 3f 09 1d 5b 37 9a 0f cb 3f
       0.06727727980611994 0.21141364767957097
000660 d2 22 d5 99 50 9a d6 bf 2e 81 49 58 07 4e d4 bf
       -0.35316863081656635 -0.3172624933413485
000670 9e a5 a1 65 c9 13 d1 bf 16 a8 88 43 07 0b 8d bf
       -0.2668326847547976 -0.014181191204517812
000680 24 dc a0 4a d0 0f ab 3f 39 82 e5 82 c5 05 c1 3f
       0.05285502348890983 0.13298863307410771
000690 cc af 56 2e da 54 d4 3f f7 cd 4b 8f 52 ea c7 3f
       0.317678971531447 0.18683845517044492
0006a0 c5 38 f3 09 71 49 d5 bf 0e 86 62 05 f4 67 d6 3f
       -0.33260751697242724 0.3500948002420906
0006b0 bb e0 53 3a 59 bc d2 bf c9 d9 fc e4 8e 4d c3 3f
       -0.2927458829503952 0.1508043878654475
0006c0 16 ca 96 cd 9c 76 c1 bf d8 35 96 da 3f 14 c5 bf
       -0.13643226660276814 -0.16468046353513333
0006d0 29 7d 1a 62 1e c7 8c 3f 04 e8 ef 69 fc d9 6c bf
       0.01405166375053442 -0.0035219125707017813
0006e0 09 36 11 7a 3c 10 cb 3f 28 bf 24 e1 36 51 d2 bf
       0.21143299064935686 -0.2862069319407845
0006f0 ce b3 01 9a 9d 91 8b 3f 7a d5 77 1a f2 1f 95 3f
       0.013461333525094956 0.020629675736889543
000700 37 c8 67 a7 c3 c0 bd bf 59 f9 76 4c 4e 6d 84 3f
       -0.11622259938283795 0.009974109371680017
000710 c2 02 97 ee 2c 39 8c 3f aa 19 da 8c 09 96 77 3f
       0.013780928641496163 0.0057583210997393195
000720 5a 62 d2 fa 40 89 ea bf 6a 31 de 51 14 0f bd bf
       -0.8292546175826587 -0.11351134299019852
000730 d0 a3 81 70 63 75 a6 bf d7 0b 47 00 46 3b cd 3f
       -0.043864352687542074 0.22837138188887593
000740 48 09 6d 80 52 0c d2 3f 01 8c ac 9a 9c 5f b8 3f
       0.28200209180444746 0.09520891929837207
000750 48 9b b3 b2 f3 4b a3 3f 85 4c 64 2c 69 22 c4 3f
       0.037688842357786856 0.15730013530319212
000760 bc 65 54 cb f8 a2 d7 bf a1 02 89 56 66 74 a2 bf
       -0.3693220124856358 -0.03604430967653128
000770 00 7d 9b 52 c5 ba b7 3f 18 b1 60 de eb 67 cc 3f
       0.0926936461141743 0.22192142828260653
000780 b1 ea b7 24 c8 94 75 3f d4 b1 50 c0 a6 74 da 3f
       0.005268842516211223 0.4133698347166306
000790 06 e9 2b 31 87 47 a3 bf 4c 51 c5 28 2c 55 db 3f
       -0.03765509104955993 0.4270735166694706
0007a0 f7 01 8c cf 40 2f b2 bf d7 98 e5 57 89 7c ed bf
       -0.0710335261064826 -0.9214522091613401
0007b0 3b f2 1c 4b 01 e0 eb bf c2 d9 ae bc c5 45 f3 bf
       -0.8710943667461558 -1.2045342798643195
0007c0 ab 7c 0a 3b 37 4c b4 bf 14 70 60 a7 d0 86 d2 bf
       -0.07928795997075848 -0.2894784578836618
0007d0 2e 9f 4a 1e 0e 90 dc bf 1e da 08 18 79 c8 c7 3f
       -0.44629242857125717 0.18580545114100827
0007e0 62 62 71 84 87 57 74 3f 51 4a d1 84 3f 3e 75 3f
       0.004966287007015598 0.005186317558655577
0007f0 17 57 52 5f 74 18 a1 3f 63 b6 4a f8 c9 68 a9 3f
       0.03338969863504653 0.04962760120302503
