yuce/data_par/weight_7.npy (npy, 3328 bytes, 1 tensors)

array f8 [1, 1, 400]
-1.0034764786609331 -0.0013341004979710391 -0.5414187883879805 -1.8964642647385621 -3.85152171222678 1.0132954056530725 0.318806022627981 -1.1374438233611965
5.959654378862816 0.9140455897850591 -5.456624769378289 3.599848829726951 1.5305402427466386 -0.0033465899879120344 1.5989347857418736 -0.8091981857293572
0.9222084132153221 -0.5849403910847135 -1.3809040645341375 0.5415725719635481 3.4475837421877973 1.1615113736883322 -0.01591979865067651 -0.4113099676072497
-2.8720540301098345 -0.47415218880826915 -1.5648222240538496 -0.001829144972344855 -3.208018304147442 -0.7079782021924628 1.2070022613488431 4.766468656227424
0.5647900289082947 -1.1036087434774908 -0.0012865042816295668 0.292651887574636 -0.0008318736967166672 1.2716430593902557 -1.5289397117487504 0.9201987051973077
5.99675960340522 -1.8654170273082988 -1.1087233340577298 -1.4036174586096857 -1.972437731336454 -0.25357602797268086 -1.2221400273573955 -1.6393659785132386
-0.7341650212097786 -1.0815920948262867 -1.6092529223862337 -0.13431144969979977 -0.0009137513201754993 -3.7663984642810586 -0.6031309687826961 -0.36800358161461744
0.5550378797717465 -2.2942753166966234 2.3435776228121616 2.301079281975238 0.9145185889726809 -0.016927362043871977 1.1533740937551573 -0.7736940089491484
-3.63686706113367 -0.621611224437859 -4.0798219293162985 -1.0404373763907553 0.518234555468815 -0.9120524917684935 -0.31765953418894044 -0.95108285806379
-0.8871969555900255 -1.6824601503141778 0.2920430018716028 -2.1044715074242917 1.548463883897204 0.7399273567779877 2.4927758068675696 0.7344834839115465
1.7488776871751095 -5.856661848969015 -1.6991007909503837 -1.1146208546863612 -2.232285026222051 -1.4200217899908871 2.8182330885666276 1.3845195545194455
-0.983594994180804 1.7261362391240833 -0.36397235583944043 2.5842114802201483 -0.001506918887935066 2.3931628681967747 -1.5053302931301389 0.0016135222848209423
1.311500207101619 -0.00042991256726302476 3.1695114487399616 0.618744355165461 -2.10445004744019 1.8917714336909073 1.3674189990528327 -0.6034762843379323
-2.6978006226462994 1.0055529442989344 -0.8520333139154039 1.4692354344552432 -4.430431676006169 -0.004296460674218946 -3.415375439406787 0.011421145626312761
0.13814494540287778 -0.00941586133464237 -1.0174680295515077 -1.4141623134662258 0.4538882815306998 0.7459922754598373 0.46343415106968155 0.7454606456109828
2.1078402024834677 7.7492144246224655 -2.5815535091621187 1.6835967772844864 1.1755699280214118 -0.685441035134143 0.001219575736386078 1.1725947779783201
-0.08743766292768401 -0.9578805311834192 -0.01460521340189038 -1.3055822346896977 0.001489857001479247 -0.2240674585757634 0.07105682979828441 -6.0089838358484725e-05
-1.8942659601970504 1.772535117918904 0.8778095403189293 3.94857262723519 -1.0930185273777966 -3.704987838454705 -0.00024317653833647268 -0.08256551296369537
1.366316281377005 -0.4336744527077613 0.7341073301420012 2.6694571063166563 4.041570799039786 -1.2526775595351378 1.068415681063143 -0.38685370104258476
-5.830899173558925 3.274002322629648 -5.341508271339072 1.4310568961110617 0.9305335318299587 0.6846623685303149 -2.3696485383471084 -1.2068181144984205
-0.45818353136660656 -2.9273386783116195 -0.01523167232548427 0.30879114818264847 -0.2994540455218356 1.9003325047570994 -1.0404102605626544 1.2403988534511654
1.3647708473047113 0.0009704494953281613 2.1466424692370305 -2.1200028063665686 4.409733113108963 -0.007762960092546874 0.23671770709672854 2.871416576784696
-0.0030469852140392792 0.0009882830007360089 -0.7944080098522543 -6.837210714607226 -3.359652769702882 -1.1086024069791482 0.3481334573348805 -0.8922643250781357
2.3099840351747045 -1.0878739013974745 1.2617045696029525 1.2443624597813883 3.8425980521323697 1.3510777416867288 0.7218991808802874 -1.1462435162293232
-0.2867101293540997 -1.9829971142092648 -1.7232329745382182 -5.443645031715394 4.737160303053117 -0.8818254931886712 -0.6905108735038777 0.6147100207374663
0.09653618763740225 0.546275920256484 -0.0072281531451083274 0.08269785623851167 -1.8946775786376784 -0.3204783028326139 -1.0408437853183818 2.3329954943640137
-0.05642323388973486 1.5364714981381014 0.1122263004067392 0.8781521335935135 1.729097866704616 -0.626993076248532 -0.017817874644587842 7.548712453296795
0.004789595133361486 0.9809568428004265 3.5478012793511744 0.887549151674817 -0.7200040787025884 0.005088392991589234 -7.078734036272507 1.8261693934008236
-0.9837859490403638 0.2603231012939875 0.004571544331415132 0.24429700232914667 0.2072382678144061 -0.008475361345005011 0.6447281035413723 -1.5348784622166352
0.8170241493131906 0.19428328643095838 0.0014990017880743176 0.8421418165950088 -0.12161104002441661 -0.45996241197414894 0.10150380002834239 2.863957836730566
0.19358032671168882 0.38309957100742104 0.16736317218490962 0.007456391546675797 -1.1036010973593453 -0.05570007922477686 0.18420746631876755 -0.20032274345428866
0.509250449819594 0.01307496704104898 0.10808781612491415 0.0037614074215363987 -1.3452664207545306 2.159750408495692 -0.7792279358031966 -1.3626032535194292
00000000: 9476 225a 3d0e f0bf a904 8980 9fdb 55bf
00000010: 4d1f b27e 4d53 e1bf 625b b1e9 ea57 febf
00000020: 97c8 8e9d eacf 0ec0 d578 473e 7536 f03f
00000030: f51e 3d60 5167 d43f 05fa 654b f832 f2bf
00000040: 49b7 32a3 afd6 1740 6bc1 6589 dc3f ed3f
00000050: da17 8c71 95d3 15c0 dec4 118b 7dcc 0c40
00000060: 7ef0 fcc3 177d f83f f174 a3d1 4e6a 6bbf
00000070: 7a2b 53a4 3c95 f93f 7d15 f697 f3e4 e9bf
00000080: 3a63 db37 bb82 ed3f 782f 3ae9 d4b7 e2bf
00000090: c966 41dc 2e18 f6bf 39cf 9f00 9054 e13f
000000a0: d457 f7c8 a694 0b40 56c6 3ef3 8c95 f23f
000000b0: 0416 419a 474d 90bf d215 d90a e752 dabf
000000c0: 7b55 9d76 f7f9 06c0 8888 106c 8258 debf
000000d0: 24d8 4507 8309 f9bf 9fcb 7e75 fdf7 5dbf
000000e0: db42 2a80 05aa 09c0 f251 16e7 c1a7 e6bf
000000f0: ac0f 6b9a e14f f33f 989f cf28 dd10 1340
00000100: 9f93 e889 c212 e23f 310c 4da4 61a8 f1bf
00000110: dc75 3574 fd13 55bf 0cba 8ffb ceba d23f
00000120: ffc3 3029 4342 4bbf b943 8464 a658 f43f
00000130: ca43 b87c 8976 f8bf 809b 148e 4472 ed3f
00000140: bc65 aa8c aefc 1740 090d 5b86 bfd8 fdbf
00000150: c670 c1ad 54bd f1bf f72b 8d94 3775 f6bf
00000160: b9c8 d7dd 1a8f ffbf c04d ccf2 963a d0bf
00000170: f61e 8ab3 e28d f3bf fa3a fed1 d73a fabf
00000180: 16d2 7ea4 477e e7bf ab41 2e83 334e f1bf
00000190: c442 0afe 7fbf f9bf cb30 f819 1e31 c1bf
000001a0: 6bdd b604 1af1 4dbf 8c55 9e84 9521 0ec0
000001b0: 190c 4451 d94c e3bf 1c1f f6e4 5e8d d7bf
000001c0: 8725 b5cc dec2 e13f 38db 6904 ad5a 02c0
000001d0: deec ec9f a5bf 0240 c9b1 2c41 9c68 0240
000001e0: 6b18 e77c bc43 ed3f d43e 8b09 6855 91bf
000001f0: 6eb6 cb64 3874 f23f f486 31f0 19c2 e8bf
00000200: febf fbc1 4d18 0dc0 1730 f938 3de4 e3bf
00000210: 23ab ffd6 bc51 10c0 3e26 92a9 a1a5 f0bf
00000220: 3ca9 6ca2 6095 e03f 0f31 0cb5 882f edbf
00000230: 76a9 a6a7 8854 d4bf 2e72 6551 456f eebf
00000240: 6bd6 abde ea63 ecbf 20c3 a655 5beb fabf
00000250: de1b 8421 d5b0 d23f 5d02 5e28 f5d5 00c0
00000260: 9702 c610 82c6 f83f abde d822 7cad e73f
00000270: bf0c 3671 34f1 0340 8145 db81 e380 e73f
00000280: 7ef0 712b 67fb fb3f 1436 84c3 386d 17c0
00000290: 87d5 9b4f 842f fbbf 7014 65ad 7cd5 f1bf
000002a0: 2fcb 7740 b8db 01c0 50e4 b9c4 68b8 f6bf
000002b0: 9d30 1fca bd8b 0640 0c56 f5f9 fd26 f63f
000002c0: f481 9035 9c79 efbf 6ba7 7708 419e fb3f
000002d0: 469f 3eb5 524b d7bf 41f2 8b11 77ac 0440
000002e0: b497 d9d5 79b0 58bf ef40 e792 3225 0340
000002f0: adc0 aa37 d515 f8bf 5986 755c 9a6f 5a3f
00000300: cc2d 23a4 e7fb f43f 6dfa a16a bc2c 3cbf
00000310: f215 85d1 285b 0940 00a6 40f6 c0cc e33f
00000320: f391 0ee8 e9d5 00c0 075a 731f b244 fe3f
00000330: 8ac6 8dbe f2e0 f53f 9793 247f ad4f e3bf
00000340: 8327 2b7e 1895 05c0 2291 22af be16 f03f
00000350: 2cd0 4b5e db43 ebbf 02c1 d103 fd81 f73f
00000360: 946f ce14 c3b8 11c0 6f60 5961 2a99 71bf
00000370: 9f82 be5b b052 0bc0 293b 9537 f863 873f
00000380: ef78 4ecb bbae c13f d2b9 f783 9f48 83bf
00000390: 7b63 7a8e 8c47 f0bf 952b 79a9 68a0 f6bf
000003a0: 5a91 4d6f 810c dd3f 5f65 4531 2bdf e73f
000003b0: 5067 acb6 e7a8 dd3f bf55 ab48 d0da e73f
000003c0: 54e2 f652 dbdc 0040 a0c7 ed10 32ff 1e40
000003d0: 7dcd b586 05a7 04c0 e567 a12c 03f0 fa3f
000003e0: 6735 b069 22cf f23f db99 a709 22ef e5bf
000003f0: c209 c779 45fb 533f 4809 eebd f2c2 f23f
00000400: 0c8c b68e 5062 b6bf 770d 5d12 f5a6 eebf
00000410: 0b3a 4c8f 56e9 8dbf 8eb1 8332 aae3 f4bf
00000420: 0c65 36c6 e968 583f 7122 5713 3eae ccbf
00000430: 271d 24c8 c730 b23f 3803 e41f 1f81 0fbf
00000440: d38e cfd2 e94e febf 3692 a7c8 4d5c fc3f
00000450: c92b 7908 0417 ec3f f7d8 de3e ad96 0f40
00000460: cd27 d0fe 007d f1bf eeec f1a9 d0a3 0dc0
00000470: 56ac 018f a6df 2fbf 85df f471 0323 b5bf
00000480: e91a 0876 6edc f53f e664 df7d 52c1 dbbf
00000490: 35d7 d6a7 ce7d e73f 80a3 cd53 0c5b 0540
000004a0: bd60 1989 912a 1040 252f ea9f f70a f4bf
000004b0: 3e32 8b0a 3b18 f13f 2820 9406 36c2 d8bf
000004c0: 07d6 a23b d752 17c0 6fc7 3521 2831 0a40
000004d0: f7db 2258 b45d 15c0 4c32 78ea 9be5 f63f
000004e0: 4350 e141 eec6 ed3f 9f77 340e c1e8 e53f
000004f0: 63b8 f94a 0af5 02c0 8bdb df82 204f f3bf
00000500: 6d43 b204 e152 ddbf 6d50 7d8a 306b 07c0
00000510: 3ac0 0274 c831 8fbf ed47 aff2 3bc3 d33f
00000520: 99f4 0a4d 412a d3bf f251 770e c367 fe3f
00000530: 8ba1 b83a 85a5 f0bf 3319 d977 acd8 f33f
00000540: be53 bbf4 19d6 f53f 582e 246c b8cc 4f3f
00000550: 329f 0ce3 522c 0140 5a2e 0608 c4f5 00c0
00000560: a890 c313 91a3 1140 2276 7bbb 0dcc 7fbf
00000570: c7a9 2e0d c44c ce3f 3fdc 1341 a9f8 0640
00000580: 6bed 0fbb fdf5 68bf 24ed b5ca 2831 503f
00000590: 3cde bf58 ca6b e9bf 3265 fcc3 4d59 1bc0
000005a0: 4d51 9ea1 91e0 0ac0 8fe0 a3e0 d5bc f1bf
000005b0: e963 798d d147 d63f ae23 f3e9 6d8d ecbf
000005c0: 19dc eae8 d87a 0240 0ac9 ca76 ee67 f1bf
000005d0: f588 7a21 f12f f43f 4e19 529c e8e8 f33f
000005e0: 97a7 2c0c a4bd 0e40 5b5e aeb1 039e f53f
000005f0: 117b 9c4f cc19 e73f d34f f770 0357 f2bf
00000600: 987f 4071 7559 d2bf 6e75 992e 5bba ffbf
00000610: b77c 50bd 5c92 fbbf 8300 19e2 4ac6 15c0
00000620: 2117 8626 daf2 1240 ffc7 c018 ea37 ecbf
00000630: d768 6742 aa18 e6bf a6e8 7259 b4ab e33f
00000640: 517d c878 98b6 b83f 4001 83a3 177b e13f
00000650: be46 e695 449b 7dbf 4064 fecb af2b b53f
00000660: aa69 cb6f 9950 febf 2498 6f6d b782 d4bf
00000670: 29ff 22d0 4ba7 f0bf 0112 b08a f9a9 0240
00000680: 08fa 9490 81e3 acbf 0dd4 3b23 6395 f83f
00000690: 007e ffe1 dcba bc3f e34b d680 d219 ec3f
000006a0: 6c46 5186 62aa fb3f c3c9 a9c8 5310 e4bf
000006b0: 01eb 8753 d93e 92bf 4945 67ad e131 1e40
000006c0: 5486 5727 419e 733f 16b0 d39a ff63 ef3f
000006d0: 7b29 1ca3 e561 0c40 f325 817a cd66 ec3f
000006e0: 8d74 60fe 450a e7bf eb23 cf17 91d7 743f
000006f0: 6f7d bba7 9f50 1cc0 9acd d965 fd37 fd3f
00000700: e090 acab 2c7b efbf b8dc 9c39 22a9 d03f
00000710: e48c 5496 9cb9 723f d1db c1c9 1f45 cf3f
00000720: 530c 5f97 c886 ca3f 707d 63be 875b 81bf
00000730: a6b6 f0d4 9ca1 e43f 2ee2 e8b7 dc8e f8bf
00000740: bbf4 2ad4 0f25 ea3f dcaf b054 46de c83f
00000750: d1dc 02ea 448f 583f b4d3 1b65 d3f2 ea3f
00000760: 52c7 bcaf e621 bfbf 2f5e 342f 0670 ddbf
00000770: c29c 8a2d 27fc b93f a60b efb9 62e9 0640
00000780: e516 307a 3dc7 c83f 09aa 2510 b484 d83f
00000790: 7964 8b0b 286c c53f a321 6ddd 978a 7e3f
000007a0: 42cf cf9f 59a8 f1bf 865f 4f85 b884 acbf
000007b0: 0652 c239 1c94 c73f 4ffd e3f7 2ca4 c9bf
000007c0: aa59 6e99 c74b e03f da5e b35e 0cc7 8a3f
000007d0: e141 5aa3 a4ab bb3f e307 993b 3ed0 6e3f
000007e0: 51c3 1815 3686 f5bf d617 e038 2b47 0140
000007f0: 2af0 8c6c 6fef e8bf 57a0 b411 39cd f5bf
