yuce/data_par/weight_1.npy (npy, 1728 bytes, 1 tensors)

array f8 [1, 1, 200]
000000 6c fa 7d 81 03 08 71 bf 6a 93 61 b9 9d 53 45 3f
       -0.004158033079760242 0.0006508369576861798
000010 be f4 43 fb 69 c0 01 c0 73 35 49 e5 f2 a0 61 bf
       -2.2189521436799557 -0.0021519416862136264
000020 92 92 58 89 88 c4 dc bf 89 31 0b ec 45 9d 1d 40
       -0.44949544346517556 7.403587043936917
000030 4a 22 ca 54 b5 e6 dd 3f 02 71 ed d0 b6 68 d6 3f
       0.46720631866677265 0.3501412430102989
000040 5c 6c fd fb e2 bf f2 bf a7 55 8d e1 57 ee d1 bf
       -1.1718473285061668 -0.28017231966563333
000050 5b bd fb c2 4f 87 fd 3f eb 5c f4 97 94 33 51 bf
       1.8455350510156083 -0.0010498953923326292
000060 98 14 8a e3 e5 c7 04 c0 e2 97 ae 20 27 59 27 c0
       -2.5976064468873794 -11.67412664538637
000070 b4 f4 1a 13 49 5f e0 3f 23 12 91 6b f9 e0 70 3f
       0.5116315243864364 0.004120802209460569
000080 91 6a df b6 0a c6 09 c0 ed 0f c9 e9 6b e3 ee 3f
       -3.221700123494266 0.9652614179726676
000090 8c 2e 54 5d df 65 d3 bf 6f c8 60 94 95 58 03 c0
       -0.3030928050436408 -2.418254050448972
0000a0 ea 79 fd b4 ef 3b 15 c0 54 84 ad 3e 3b 94 f5 3f
       -5.3085315971097575 1.3486893127776698
0000b0 7e fb b3 a6 78 0f b3 3f e8 bd a0 99 d0 07 d3 bf
       0.07445482320689042 -0.2973519802353324
0000c0 12 fc c7 ae 32 fe 10 c0 09 a7 5e 46 95 ba 61 bf
       -4.248240214305968 -0.002164165070060235
0000d0 67 c4 0f 35 b2 db 46 c0 47 67 7a 41 00 0f fb 3f
       -45.71637595434077 1.6911623533000737
0000e0 62 d0 12 5b 26 07 00 40 fb c9 58 56 89 3f 78 bf
       2.0034911265484405 -0.005919968103216262
0000f0 0a f7 15 82 73 b4 06 c0 87 5a a3 05 de 54 fa 3f
       -2.8381109393075166 1.6457195492018017
000100 81 28 ae c9 9d d8 b4 bf 83 97 11 db 31 82 d0 3f
       -0.08143030332408509 0.25794645684651857
000110 2a 41 8c 8b 5c 7d c2 3f c8 cb 69 f6 1c d2 c4 3f
       0.14445072950230414 0.16266214401147594
000120 98 d5 ff e7 51 b3 ee 3f ab c2 ec 6e 42 20 cf bf
       0.9593896418797838 -0.24317198196651665
000130 55 85 46 24 3b e1 0b c0 04 a1 c2 9b 3f 31 31 40
       -3.4849760850926637 17.192376837746465
000140 4b f8 1c 5d d6 f5 f1 3f f1 6c 9a 8c bd 34 f4 3f
       1.1225188863022761 1.2628760807336301
000150 8d ac 40 a1 50 79 10 c0 79 7a 76 57 1e 2d 01 c0
       -4.118471641132726 -2.147030528357672
000160 01 c4 25 99 dd f1 04 c0 e4 0d e7 55 6a 82 04 c0
       -2.6180984463358077 -2.563679381478993
000170 ed 4e 0b cc 4e 37 fc 3f af 69 70 60 50 90 03 40
       1.763502881095458 2.445465806418006
000180 70 cf 6b 8f 4f ac d3 3f 34 7c 20 8a dd 75 ef bf
       0.3073920155140888 -0.9831378648558542
000190 9e 47 bb f1 8c 1c 72 bf 86 08 2c 01 88 af 16 40
       -0.004421759189158351 5.671417253792361
0001a0 86 c7 f4 5b 7a 4a 7b bf 29 4d da 71 cf 67 f6 3f
       -0.006662824597968858 1.4003443190930034
0001b0 f3 ce 77 83 d8 e3 ed bf 4c da e5 c6 ff 91 03 c0
       -0.9340632026419072 -2.44628863705592
0001c0 79 18 7f 34 64 fd f0 bf c2 59 9b 0c 2b a6 19 40
       -1.0618631411212205 6.412273594838952
0001d0 c0 67 68 c5 4c 9e 09 c0 54 b8 85 26 1f 6c e7 3f
       -3.2022948667990647 0.7319484474553613
0001e0 cd a9 d7 46 f7 19 a0 bf b6 9a 89 59 fd 15 fd 3f
       -0.031448104284055846 1.817868566280294
0001f0 bf d1 bf fe d9 c1 7b 3f 37 cf 47 bb f4 bb f9 bf
       0.0067766681131513065 -1.6083876910824537
000200 4d 78 97 09 f6 7e 02 40 86 97 fd 80 7d 41 ff bf
       2.3119927167272523 -1.9534888304419566
000210 12 fd 29 3a 26 a6 cb bf 23 27 1e f2 b5 8d 78 3f
       -0.21600797500648433 0.005994520879434781
000220 cb f2 a6 be e0 f5 bb 3f a2 76 4e 64 5e dc f2 bf
       0.10922054915040318 -1.178800956556565
000230 08 c6 a4 42 0f 0b 30 c0 3d e6 25 4b 08 76 22 40
       -16.043201604106827 9.230532024742496
000240 c7 40 bb ec 2d 49 fb bf e7 4a 2a 2e ca 73 6f bf
       -1.705366062862639 -0.003839392550909582
000250 90 77 ed 65 2e 7d 7f bf 1f 1a e5 49 78 0f f7 bf
       -0.007687741511146387 -1.441276825573034
000260 f6 78 fd ae e1 4c 00 c0 06 eb 0f 74 c6 c2 f9 bf
       -2.0375398322204274 -1.6100525411299613
000270 6e 44 9b bb de 12 00 c0 dc 34 be 70 ee bb e2 3f
       -2.0092138916739293 0.5854408456813434
000280 f5 4f 46 cd d4 79 e6 3f 2e 23 06 90 9f 34 00 40
       0.7023719796438842 2.0256949664948456
000290 53 bf cb f3 3f 20 fb bf 45 89 5c c3 36 a0 d1 3f
       -1.6953734896923904 0.2754036815478183
0002a0 46 5f 2f 1a 1c 94 61 3f 08 d7 fe ec 07 6a fd 3f
       0.0021458195564995368 1.8383864648471349
0002b0 62 4c f2 49 08 24 f9 3f 3e 2a 29 59 d3 3a f8 3f
       1.5712969673666284 1.514361713680628
0002c0 11 65 79 7c 49 e6 e4 bf 10 19 be 1e 88 9a ff 3f
       -0.6531112128388107 1.9752274704820287
0002d0 48 44 a4 d3 82 6e 2b 40 80 8f 7e 14 d6 7f e8 bf
       13.71584187870225 -0.7656050110131076
0002e0 01 5b ef 55 00 6a 12 40 4e a5 10 90 dc 09 12 40
       4.603516905531024 4.509630442634558
0002f0 06 d7 14 57 e6 84 ff 3f bb ed 64 bd cb be 05 40
       1.9699462319962904 2.7181620403696036
000300 27 e0 6f 9b 17 04 d2 bf 94 6c dc 12 cc de fb bf
       -0.28149976901431945 -1.7418938385733655
000310 27 23 25 1b b1 d6 f7 bf da 4b 6b 0f 8b bf 00 c0
       -1.489914995227261 -2.093526955091403
000320 f3 f4 25 14 be 48 f9 3f 52 ec 0f 34 53 c1 cb 3f
       1.5802593981782678 0.21683731119250865
000330 66 3e 87 60 a7 b2 f5 bf 4f 93 43 27 6d a3 da 3f
       -1.356116654456764 0.41622475466129044
000340 0a 33 a3 5d d2 ba 01 c0 d2 90 06 be 85 3e 0d c0
       -2.216221553366613 -3.6555285306695646
000350 f2 8e 1a 07 96 10 d2 bf 71 03 51 1a 1b 01 c1 3f
       -0.2822623319027421 0.13284624848349894
000360 08 59 76 ca 80 03 05 c0 57 45 4c be 97 49 3b c0
       -2.6267104928366543 -27.287471669789138
000370 e3 e5 26 7c 21 9b f9 bf 04 09 36 84 ac 18 0f c0
       -1.6003737306294787 -3.8870477990141143
000380 c1 f0 a8 99 d1 61 76 3f 97 13 95 13 9d eb 56 bf
       0.005464380980409967 -0.001398948092473184
000390 81 6f cd 35 82 1b 78 bf a4 e9 aa d8 74 05 09 40
       -0.005885609277210936 3.1276642729910282
0003a0 7c 2f ce f5 4e 80 d1 3f d6 ec 07 63 06 6f 13 c0
       0.27345632557329913 -4.858422801359856
0003b0 40 f5 89 d3 d6 e3 d5 3f 3b 33 e6 c3 23 96 06 c0
       0.3420311990556293 -2.82331040426507
0003c0 72 ba 9f d2 81 d0 6e bf fe 73 4e d9 02 d4 e9 bf
       -0.003761533317621351 -0.8071302646891352
0003d0 53 b4 44 43 a8 08 f9 3f 2c f8 d7 6a 2f 61 e6 3f
       1.5646135928793867 0.6993634306707057
0003e0 5b 06 b2 ed 19 06 7f bf bc fc c5 cf 11 b7 ea bf
       -0.007574178012079348 -0.8348473604272821
0003f0 d2 66 84 20 f8 05 c2 bf 3f 5a 07 fb 3e 08 01 40
       -0.14080716693643197 2.129026375924951
000400 49 5c 0c c5 e9 43 e9 3f d8 6d ea 57 ee 9b 00 40
       0.7895401810263901 2.0761381977479054
000410 9b e8 40 87 fb e2 c9 bf f6 87 14 f3 94 75 04 c0
       -0.20223945717026912 -2.557413004936275
000420 48 97 01 2b fa bb f7 bf de b8 16 4c b3 f9 ba bf
       -1.4833928756647357 -0.10537262542377188
000430 2b b8 a9 8d 11 97 61 bf d7 26 f1 12 62 76 f0 3f
       -0.002147230419089948 1.0289021243974525
000440 42 4d 01 ec 2b 7f f0 bf da e5 b2 fc 65 b9 f8 bf
       -1.0310477465580594 -1.5452632781074187
000450 92 bf d2 64 e2 3b 01 40 4e a5 eb f5 35 05 11 c0
       2.1542404057326587 -4.255088655955957
000460 d9 a5 96 17 bc 4f 7b 3f 7b 39 44 d2 5e 38 9a 3f
       0.006667837843829593 0.025605660995148476
000470 41 d1 ec d9 bd ab 16 c0 f6 96 50 d8 a5 7a f7 3f
       -5.667716412619769 1.4674433183476459
000480 3d 57 56 25 72 bd 17 c0 e8 5c 42 d0 67 b4 f0 3f
       -5.93500574435694 1.0440443167806794
000490 50 0a a1 b7 a9 82 1e c0 6c 45 5f ae 5a ed 04 c0
       -7.627600545124167 -2.6158956168007332
0004a0 33 85 c9 a4 52 52 ba bf 0b 71 d1 a7 0c cc 0f c0
       -0.1028186466515038 -3.9746335135261055
0004b0 9b 84 95 47 5a f1 51 3f 4c d8 dd c5 ce 64 44 bf
       0.0010951406132664657 -0.0006223687775974789
0004c0 a0 b5 15 3e a4 42 d7 3f 26 b4 9c 77 1d 11 41 bf
       0.3634424787804509 -0.000520839107797881
0004d0 23 87 f8 b6 42 f2 e2 3f 04 30 df ac b3 fb 13 c0
       0.5920728276871369 -4.995802594301498
0004e0 52 fc fa e9 8d 4d f1 bf dd 83 d6 75 7f 62 31 3f
       -1.0814341678485744 0.00026527034591522313
0004f0 9f e0 87 e1 61 f5 fc bf f4 ef 79 6d 86 c7 71 bf
       -1.8099077997012853 -0.0043406725959549315
000500 39 48 ba 75 7e c1 45 bf 2d ea 14 fd 2c 1b 0e c0
       -0.0006639354209758758 -3.763269402695434
000510 07 69 4d b7 5d 60 0e c0 c6 42 9c 9e 76 3f 3c bf
       -3.797053749132036 -0.00043102880464211365
000520 39 d8 e3 64 e0 fa 7b 3f c9 e2 01 c2 32 ce f7 bf
       0.006831051387271408 -1.4878413751995814
000530 7d 1d 49 1b 78 6a 1b 40 de 44 06 82 ab 60 f4 3f
       6.853973795259091 1.2736010626870704
000540 f2 df d5 36 18 11 f4 3f e3 41 14 f0 5c cd 70 3f
       1.2541734830865576 0.004102099455181893
000550 18 67 93 4f 88 e8 07 c0 47 45 55 8a ef fd e6 bf
       -2.988541242299913 -0.7184980108087665
000560 b5 d8 4c 0e 5c 23 10 c0 53 7a d9 51 02 0b 46 c0
       -4.03453085273775 -44.08600829237971
000570 fa d7 52 f6 70 0f 07 c0 37 fa 3f 96 b3 cc ce bf
       -2.8825396770507696 -0.2406219943658969
000580 d6 6f 2c 24 a7 1e d0 bf 19 b3 13 d9 39 c6 f4 3f
       -0.251870904279483 1.2983950118606968
000590 0c 42 44 25 57 c4 d6 bf e0 78 00 bf 5c b8 f3 3f
       -0.35573366774863824 1.2325103245744273
0005a0 31 fe 30 c0 d7 a9 21 40 cc c0 e7 80 8c b6 ff bf
       8.831724172573646 -1.9820675883639067
0005b0 c2 58 e0 b0 14 34 f6 3f 58 b0 1c d6 14 d8 e1 3f
       1.387715044902095 0.5576271230579648
0005c0 a4 fd 3f f6 cc 48 fd bf 02 1c da 73 ff e6 c9 3f
       -1.8302735919131488 0.2023619952853722
0005d0 6a 82 34 2b 63 6b f5 bf 80 43 00 2c 28 4e f7 3f
       -1.3387176215839198 1.4565812796392663
0005e0 c5 15 0b 38 81 52 1d 40 e8 9e e9 97 77 77 40 bf
       7.330571056057527 -0.0005025228454771076
0005f0 f9 57 bd 2b 83 29 fa 3f d1 e4 0e 5a cf 86 04 c0
       1.6351348599032447 -2.565825179652713
000600 c8 5b ba 8e 14 62 f0 3f 0f 9f da 39 3a 45 45 bf
       1.023945386439424 -0.0006491216951944617
000610 98 be ef 9f 54 59 f6 3f 80 90 a9 63 11 fe ef 3f
       1.3968092200774773 0.999764151242303
000620 18 27 ad cd 8c ca 05 40 25 22 12 d0 7a 0f e4 bf
       2.7239013737170232 -0.6268896163829295
000630 5c ec 84 da 97 d1 f3 3f 09 27 93 7d f4 b1 e5 bf
       1.2386702094943507 -0.6779730274804204
