yuce/data_par/weight_0.npy (npy, 6528 bytes, 1 tensors)

array f8 [1, 4, 1, 200]
00000000: 23ec 3372 252a 72bf c71f efe6 2867 793f
00000010: e574 2962 2b17 8a3f 0f88 977d b40b 833f
00000020: 08cb 5f91 c613 b63f fef9 1e81 22f5 00c0
00000030: f3c1 5a7f 17d1 aebf 5edd 052a 9ad3 b3bf
00000040: 2c1b 2887 3973 e53f ae92 6587 8a3c a73f
00000050: 9c1e 5867 322d dabf 4840 438d 6cb7 953f
00000060: c32f f8c9 e9f6 cdbf 93ec 96a7 5f43 dfbf
00000070: 25bc 0deb 4025 bcbf a3c8 7d6b 4350 833f
00000080: b1e9 71c4 fc19 c13f cd42 80e4 0377 c9bf
00000090: de50 1eab 3cee 723f 8d62 72d1 c9db e63f
000000a0: 9817 b027 e5e5 0140 f649 cb9e 16d9 a5bf
000000b0: eb9c 0b81 dea4 96bf e678 53ce ecf3 c8bf
000000c0: 7ae7 5199 56dd ef3f 75a0 e88c 0010 8ebf
000000d0: 81ac d96a 5510 3440 9e7b a630 d8cd bfbf
000000e0: de5d 7cd2 48a5 d5bf 6a1f 75e8 9d29 65bf
000000f0: 7e80 b306 ed5c 9cbf 69b9 1d92 345b bb3f
00000100: 8ee2 1837 a776 a9bf 97f3 c9d0 e062 b0bf
00000110: 4eb1 1ade 06df a13f 355c 21ac beb3 a7bf
00000120: 001b 8ca0 7584 ff3e b590 4d33 6c42 863f
00000130: b83a 86df 9d7c a3bf e1c7 acd8 b9f1 29c0
00000140: 7104 e598 887b e43f dc6a a7f8 ac84 98bf
00000150: 12e7 71cc 554a b33f 9515 b44b dbf5 c73f
00000160: b9d3 424b bb23 a23f 8364 6672 5dc6 d13f
00000170: 360b 3e56 28f3 c43f de4d 2b40 6b57 c73f
00000180: d8ce b8b3 744f abbf bc1f cf88 e012 d03f
00000190: 4c36 0620 e1cf 823f 901c cd3e 5762 00c0
000001a0: 9241 599a 627e 8fbf a706 0fab eb42 96bf
000001b0: 4aca 8cd7 2aa5 743f 4509 28b1 48b4 c03f
000001c0: 233b 5054 87d4 d93f acc1 645f bc43 e43f
000001d0: f6d9 c898 8fc2 db3f 36b7 7101 040e c2bf
000001e0: 6bf4 221e 35a5 863f d234 168a ea17 a13f
000001f0: 0881 d8c7 f408 92bf a8db caf4 b04b b4bf
00000200: 4641 24d7 3c97 e0bf cbf4 a957 ea9b c63f
00000210: 31e3 721a 8b1e 5abf 34c1 1696 c296 8ebf
00000220: ae0f 6dea d2a8 b4bf 7cb8 4e97 9584 c13f
00000230: 96d7 57bc e539 22c0 ddcb 36e2 0cf7 13c0
00000240: 2114 50cf 6637 c13f 8d09 701f 8f32 633f
00000250: 9fdc 620a 7a16 853f c5cf a011 912a afbf
00000260: d5e4 f3c3 0366 9ebf ea04 eb08 941c e23f
00000270: 8375 4ff1 eb41 d13f a80a 71df 8cc9 c8bf
00000280: 0354 bfce 69a3 cabf 4b78 3af2 23de b63f
00000290: 7210 874c 1491 c03f 57fa 88fe 2dd9 b3bf
000002a0: 5b77 6eaa 43db 903f c059 b96d e2f8 dfbf
000002b0: 5847 1a5d 1dc9 a43f d015 f250 867c c6bf
000002c0: 487f bc85 6e65 c73f b2f8 7273 27f5 cb3f
000002d0: 99da df0c 5607 26c0 81e2 cbc9 a884 a4bf
000002e0: ff86 920f 0ec9 d53f 305c 6364 5def f8bf
000002f0: 76b2 9cbf cce1 e7bf 8ac4 2b6b 7137 d1bf
00000300: d011 5d41 6757 ad3f e90f 842f c7d0 923f
00000310: 3341 e475 c91c dd3f 8606 3021 84b3 f63f
00000320: ad52 20ef 1292 83bf 0036 0fbe 969d a6bf
00000330: 4841 d0eb 6b2c e7bf dc82 3d09 3ef9 a5bf
00000340: 66c2 82ef 48a5 d9bf b643 e719 ec5b c2bf
00000350: 0e90 8470 fd46 a1bf bdb9 5a5d 8af2 883f
00000360: 53c6 fc64 6ea5 cd3f 51cf 456c 37bb 05c0
00000370: ee37 f02a ee22 d1bf ced7 b9e0 98cf e23f
00000380: e110 5c0e 8a66 733f 87c3 9d6f feb1 753f
00000390: 284e 8e83 6b1b 893f 2947 cc3d d6ff f7bf
000003a0: ee25 cd72 8d02 a5bf b0bf 9489 a69b f63f
000003b0: 3a0e 723c 2581 a8bf 9b1a 1e50 308f b1bf
000003c0: a8aa d669 6dd6 67bf 614c 7ec2 931e c03f
000003d0: 5664 4e33 935a e73f 8cca 76cd b764 c5bf
000003e0: 65a5 7fba 7a8a 7d3f 535e 6c8f bf35 a2bf
000003f0: 8ddd 914f d00f b93f 9ebd f0ba f41b a43f
00000400: f316 19bf 2c48 c2bf 6e7f ea52 2322 d23f
00000410: 9ff6 2226 1f0e 7fbf f104 8b09 6d6d d1bf
00000420: 54b0 95c6 1175 ba3f 3d35 48e7 8306 9abf
00000430: 59b5 7b48 668b 813f 80dd 9050 ba19 ddbf
00000440: 8ca0 ed92 7f08 d33f c4ad 530f 3fff d63f
00000450: 9dad 1937 b7d3 d8bf a765 84e4 2a05 a7bf
00000460: 9835 a753 05d9 903f 87ec ddc3 0c8e 793f
00000470: 2684 823c ca56 f43f 9fe6 9bb1 a324 db3f
00000480: 8107 05c0 ff67 fa3f c192 ba3c a462 d4bf
00000490: b3c8 9051 21bc f43f fef4 8b24 8d19 b1bf
000004a0: 0678 5ed7 aa32 a5bf ca2c dd86 c1d6 c53f
000004b0: 7201 ff11 0285 8abf d0d4 5ece 8113 57bf
000004c0: b6bd 87ab cc52 c9bf a589 0b51 673f 57bf
000004d0: d8b0 1512 9358 c7bf 2354 2f0d 38e6 b83f
000004e0: 9e2f 252c fe98 d53f 0f5d 952f 048f 7cbf
000004f0: afca 7e7c 9b34 d3bf a35b b054 9b69 8fbf
00000500: 671f 0152 d420 873f 5128 3011 9b1d cf3f
00000510: 0448 2097 a3e1 d73f 66d0 0954 3b92 77bf
00000520: ca4e 3821 dfb9 923f 15dc 2b9f 88c2 7d3f
00000530: a8bc 2fa3 2573 e03f f3e5 6f8b 2d6b e43f
00000540: c6e6 892e dfbe c2bf faf6 bd0a 9640 743f
00000550: 1b75 e81f 9a18 ba3f ef19 e7b3 d77f d13f
00000560: 0c95 2bd9 06df 01c0 117f 1303 33b8 13c0
00000570: 4f3d 59dd 2101 d0bf 0e80 76aa 3b23 c33f
00000580: 12c6 3e4f a24d a73f 6863 2ebd 7f27 d7bf
00000590: 09a4 2439 8d0d bcbf 5c3a 49f2 16df b3bf
000005a0: 8dc2 907c 0ec7 18c0 b9c8 542a 18d9 c23f
000005b0: 30c6 2ee7 8510 d1bf 299c f9f2 ad60 a13f
000005c0: 32e8 70ef 54a9 cd3f 8187 cc83 ae8f 7c3f
000005d0: 2964 06c4 b622 b0bf e538 2af2 e5c9 c43f
000005e0: 83ff c779 c9c1 e23f b346 e06a c2b2 323f
000005f0: d155 cd78 488e debf 27c3 97b4 1ed5 c1bf
00000600: 46c2 5216 156f e3bf 5f6b f63b 2dc1 6bbf
00000610: 022b 34a8 50f4 adbf 2b39 42c8 24f1 babf
00000620: e119 74c2 7258 ecbf 694f d7e2 35b2 b23f
00000630: b860 17f0 d4a2 e1bf dbb9 85a5 1be6 c93f
00000640: ef29 26d1 0089 5d3f 505d 60c9 3eb2 81bf
00000650: 0cc3 a6c9 6bfd 613f e66a 8792 c69c 8ebf
00000660: 6505 dc36 6614 9cbf f64a 6665 9cf3 e83f
00000670: 9fb2 669e 44a6 adbf 7d37 1a1d f6d4 8f3f
00000680: 973c 4dc7 41f5 a63f 3432 dbc6 4b3b acbf
00000690: 8fc6 1bf3 cc5d ccbf 4001 6472 ac8c 9bbf
000006a0: 2e3c 1af7 67be bbbf 6105 2389 0040 f0bf
000006b0: e112 5e15 9a25 60bf 8efe ff15 a0e4 873f
000006c0: 3ce4 cdef adcd eabf 9a1d f8d7 fae6 723f
000006d0: 81be d313 6cca 84bf 45f2 08d0 652f cb3f
000006e0: 1666 b88d de04 f13f 9beb fcba 82aa 78bf
000006f0: 31ae 5a3f b6a0 a13f 5acc 133b 5541 913f
00000700: 9ab9 ce80 3180 f23f 1c4a 1cee d108 81bf
00000710: 49c4 74ab fb7e f53f 0463 cbc9 d443 b2bf
00000720: c004 1f7b d2da c3bf d36b 341f 6440 88bf
00000730: 4ca6 84e5 8263 a33f 29f3 d074 8ff2 933f
00000740: c779 872f 3c67 853f d3e0 7485 7495 96bf
00000750: a53e a82b 2e74 9cbf 258e 69b0 fd0b 793f
00000760: 5795 4b3a 122a 89bf 7c17 5a45 95eb a8bf
00000770: b26d 6dd0 efc5 b53f a2ab 7abd 8f42 1940
00000780: 3177 f35b d950 c23f 2ad0 33b9 2dc6 a13f
00000790: 53e3 ad89 6c75 ae3f a8f3 261d 5b84 b23f
000007a0: 6a12 3dbc 8922 883f 3a77 918e c2c6 bc3f
000007b0: 25cc f78c 255e 9f3f 0423 9f87 e8c0 be3f
000007c0: 224f c4ea f93e 86bf 39d1 d390 7861 c63f
000007d0: 9a02 c0ff 2020 793f 7219 78ef d222 e4bf
000007e0: 7ff8 1540 0119 86bf 5908 72f2 6b13 bebf
000007f0: 5797 af7f 8033 a43f aa6d c9a3 9835 c93f
-0.004434725068899889 0.006201896451734918 0.012739504750408812 0.009299669344674326 0.08623925255941967 -2.1196947181299484 -0.060188993736463824 -0.07744754339170387
0.6703155174044233 0.045383767154622986 -0.4090085992070074 0.02120751964758963 -0.23409769403258282 -0.48848716131369335 -0.10994344462027124 0.009430433957934808
0.1336055716709104 -0.19894455582882245 0.004621731744823358 0.7143296328313952 2.237253484784514 -0.04267187775043972 -0.022113300920776274 -0.19494400095476933
0.9957688326387448 -0.014678959179107868 20.0638033658438 -0.12423468768837018 -0.3382131629491293 -0.0025833210126257515 -0.02769823411370042 0.10686043326652385
-0.049733376956685324 -0.06400876138100241 0.03490468465074291 -0.04629321910095322 3.0057353828129123e-05 0.010868878665583595 -0.038060124908147086 -12.972121020404247
0.6400797830793988 -0.023943617512354062 0.07535301438647604 0.1871904487272046 0.035428860604418806 0.27773224040863215 0.16367058001568474 0.18235531457194915
-0.05334057515974927 0.2511521659876015 0.009185560979655304 -2.048017969736584 -0.015377779326770011 -0.021739656749338334 0.005040328361064337 0.13050182962622095
0.40359671815615367 0.6332685340076316 0.43375005646103604 -0.14105272360341709 0.011057295782274509 0.03338559089307015 -0.017612290094008137 -0.07927995659234333
-0.5184616281494889 0.17663316040481045 -0.0015941961699310165 -0.014935989575719157 -0.08070104811946407 0.13685865295468946 -9.113080869410435 -4.991260084719184
0.13450322268195783 0.002343444382405474 0.01029677719303229 -0.060871632959247836 -0.029686030230526256 0.565988557260565 0.2696485382601496 -0.1936508265517507
-0.20811197848402693 0.08932709373263596 0.12942746864985427 -0.07753264869914155 0.01646142699939133 -0.4995657035373391 0.040596883406705586 -0.1756751914255532
0.1827829506883012 0.2184190095630974 -11.01432838661758 -0.040074610360481884 0.34039641876925936 -1.5584386750613355 -0.7463134519981185 -0.26900897470393004
0.057307459572743746 0.018374550128115095 0.45488201630452635 1.4188271805182082 -0.009555957720331543 -0.044171057415592685 -0.7241725545627924 -0.042917193057979225
-0.40071318998074046 -0.14343024506390883 -0.033744735703550174 0.012181359266233533 0.23161106043839882 -2.7164143046192426 -0.26775697892378403 0.587841452520246
0.004736460954294781 0.0052967013269701385 0.012259330703989837 -1.4999601758940548 -0.04103509928115644 1.413000619340874 -0.047860301617245374 -0.06859113651271757
-0.002909864137753477 0.12593314167733907 0.7298065187525349 -0.16713616878913162 0.0072121423799925465 -0.03556631685040359 0.09789754812833547 0.0392757871817324
-0.1428275998206839 0.2833336171843176 -0.007581826854389156 -0.2723038285440245 0.10334883783588228 -0.025415478698098005 0.008566664778721632 -0.4546952997947855
0.2973936972471243 0.3593289994884936 -0.38792209988488385 -0.04496130027309713 0.016452868681701455 0.006238984931651654 1.2711889613785927 0.4241112932646533
1.650390386654607 -0.3185206025175767 1.2959302126078398 -0.06679613249066915 -0.041402186193622056 0.1706163319125607 -0.01294900529308116 -0.0014084594381363232
-0.19783933997631004 -0.0014189251852988274 -0.18239057906192246 0.09726286241432595 0.337462943182567 -0.006972328520837636 -0.30008589895002563 -0.015338147661209172
0.011293085815978278 0.2430909952093452 0.37314691313179105 -0.0057546918402416655 0.018287168886742568 0.00726559989811106 0.5140560328708448 0.6380832408314617
-0.14644994518658033 0.0049444066061121675 0.10193789748196418 0.27342789238573934 -2.233899780886196 -4.929882095398868 -0.2500691091163007 0.14951272796042797
0.04551417558048966 -0.3617858264420222 -0.1095817818173971 -0.07762282767473877 -6.194391199431846 0.14725019518806962 -0.2666334874766987 0.03394073096279044
0.2317300957818716 0.006972963045685066 -0.06302969251409309 0.16241144489726547 0.5861556414165395 0.0002853130962431158 -0.47743427083090945 -0.13931640451439728
-0.6073098598481657 -0.003388012264350079 -0.05850460103291334 -0.1052420605576329 -0.8857969091339407 0.07303177631484704 -0.5511269273074708 0.20233483869692645
0.001802683637466825 -0.008640757103462932 0.002196035883763497 -0.014947463366231383 -0.02742156705699496 0.779737661405618 -0.057909149490432237 0.015542910349974676
0.04483991201288367 -0.0551398926014354 -0.22161256666690973 -0.026903814775324664 -0.10837411673331651 -1.0156255108743937 -0.0019710549776753438 0.011666536971460386
-0.8376073535611179 0.004614810808113568 -0.010151714663577895 0.21238396318394073 1.0636888061475296 -0.0060219866425609515 0.03442925952307652 0.016850787859720696
1.1562972098869069 -0.008317604140335048 1.3435017297272387 -0.07134752203581846 -0.15511542331481643 -0.011841566278738036 0.0378685860799349 0.01947998190393033
0.010450811577297337 -0.022054501195470543 -0.027786942877411253 0.006114951108063181 -0.01228727569964387 -0.0486723563345057 0.08505152548371234 6.315001450168809
0.143092317483871 0.03471510778209137 0.05948962383894831 0.07233209096643967 0.011784626061520604 0.11240783672971313 0.030632578591348065 0.12013104735445884
-0.010862305142417098 0.17484957763338985 0.006134156134067448 -0.6292509724742514 -0.010789880531543837 -0.11748385113790628 0.03945542868295487 0.19694812772182263
